spring21/lab/binary_N1000_rm1.5.pt (torch, 182373 bytes, 5 tensors)

conv.0.weight f4 [16, 7, 5]
0	0xbc93e6bc	-0.018054359
1	0x3cf13366	0.029443454
2	0xbdb55788	-0.08854586
3	0x3dbdb44d	0.09262905
4	0xbd249453	-0.040180515
5	0xbd00d28f	-0.031450804
6	0xbd6516e7	-0.055930045
7	0x3dad7261	0.08469082
8	0xbdcce2c5	-0.1000419
9	0x3c4a16d3	0.012334543
10	0x3cb72106	0.022354614
11	0xbd4743b5	-0.048648555
12	0x3d994eb9	0.07485718
13	0xbdd01a69	-0.10161287
14	0x3d56a6e4	0.052405253
15	0x3d2a92a9	0.041643772
16	0x3d390c55	0.045177776
17	0xbdf54d4c	-0.11977634
18	0x3d6bebb7	0.057597842
19	0xbcf901b7	-0.030396326
20	0x3e156e66	0.14592895
21	0xbe147d10	-0.14500833
22	0xbd0e382b	-0.034721535
23	0xbd6ea925	-0.058266778
24	0xbdff2cf2	-0.124597445
25	0x3e9cabfe	0.3059997
26	0x3e4b84e0	0.19874907
27	0x3e1223dd	0.14271493
28	0x3e0c8efa	0.13726416
29	0xbb6225f0	-0.0034507476
30	0x3d815a59	0.063160606
31	0x3d82bd25	0.06383733
32	0x3bbe4d6d	0.0058075697
33	0x3db6f41c	0.08933279
34	0x3dc0e38e	0.094184026
35	0xbd6bad50	-0.05753833
36	0xbddb3bc5	-0.107047595
37	0xbe31cbd1	-0.17362906
38	0x3cbce65a	0.023059059
39	0x3da2a40d	0.079414465
40	0xbca67f38	-0.020324335
41	0xbd8a4150	-0.067507386
42	0x3c0e2e6d	0.008678061
43	0xbc663702	-0.014051201
44	0xbddc4c22	-0.10756709
45	0x3dc05978	0.09392065
46	0x3d5d2fe3	0.054000746
47	0x3d8452f2	0.06461133
48	0x3dd6ff03	0.104978584
49	0x3de01b64	0.10942724
50	0xbb1fa771	-0.0024361277
51	0xbda45eae	-0.08025871
52	0xbdc057c7	-0.09391742
53	0x3e150808	0.14553845
54	0xbde21ecb	-0.110410295
55	0xbe1013b7	-0.1407002
56	0xbe1c037a	-0.15235701
57	0x3e24d226	0.1609579
58	0xbe2109eb	-0.1572644
59	0x3e064dbe	0.13115594
60	0xbb860386	-0.0040897755
61	0xbd083d16	-0.03326138
62	0xbb3f7099	-0.00292114
63	0xbe0cfd9e	-0.13768622
64	0xbcc7830e	-0.024354484
65	0xbd5b3986	-0.053521655
66	0x3d05796e	0.032586507
67	0x3d0ffba0	0.035152078
68	0x3d04660c	0.032323882
69	0x3d5f2de2	0.054487117
70	0xbe1848a9	-0.14871468
71	0x3db1c6b7	0.0868048
72	0xbcbf33c0	-0.023340106
73	0xbd1657ac	-0.036704704
74	0xbd6a6eb7	-0.057234492
75	0x3e121603	0.1426621
76	0xbc989588	-0.01862599
77	0xbe1ad0dd	-0.15118738
78	0x3c0e78d4	0.0086958
79	0x3e170476	0.14747795
80	0x3dd74758	0.105116546
81	0xbd80f82b	-0.06297334
82	0xbd874194	-0.06604305
83	0xbd58df0a	-0.05294708
84	0xbb655862	-0.0034995307
85	0x3c59a134	0.013283063
86	0xbe2790f2	-0.16363886
87	0x3daf024f	0.08545362
88	0x3e1ad5e9	0.15120663
89	0x3d19541a	0.03743372
90	0x3df74634	0.12073937
91	0xbd2cb2dd	-0.042162765
92	0x3bf9104c	0.0076008197
93	0x3e279706	0.16366205
94	0x3db55b09	0.08855254
95	0xbd664555	-0.056218464
96	0x3b697f0f	0.0035628711
97	0xbbc411c5	-0.0059835636
98	0xbda52dbe	-0.08065365
99	0xbe0eeff8	-0.13958728
100	0xbd326e27	-0.04356208
101	0xbda22765	-0.0791767
102	0x3d698d17	0.05701932
103	0x3d320382	0.043460377
104	0xbe1f2ff1	-0.15545632
105	0xbde2ba42	-0.11070682
106	0xbe13f165	-0.14447553
107	0x3e087063	0.13324122
108	0x3d100a06	0.03516581
109	0x3c92bf01	0.017913343
110	0xbdb1874e	-0.086683854
111	0x3e2acde1	0.16680099
112	0xbe25fe14	-0.16210204
113	0xbd8fdaff	-0.07024192
114	0x3de965c1	0.11396361
115	0x3aeaa3ab	0.001790156
116	0xbd00e61f	-0.03146946
117	0x3d553e87	0.052061584
118	0xbd958888	-0.07301432
119	0x3e2679fc	0.16257471
120	0x3be4782a	0.0069723325
121	0xbd3045f9	-0.04303548
122	0xbe04d8f4	-0.12973386
123	0xbe28d9cb	-0.16489331
124	0xbdc5eb22	-0.09663989
125	0xbe22ca13	-0.15897398
126	0xbc4b5b8a	-0.012411961
127	0xbe05eb96	-0.1307815
128	0x3d63b652	0.055593796
129	0xbe0b4d15	-0.13603623
130	0xbd0a43cb	-0.03375606
131	0xbc7e650e	-0.015527023
132	0x3de16c13	0.11006942
133	0xbd8ae4cb	-0.0678192
134	0xbd883e33	-0.066524886
135	0xbe2eab71	-0.17057587
136	0xbdb82431	-0.08991278
137	0x39eb8b5e	0.0004492653
138	0x3d33ed63	0.04392756
139	0xbe03125f	-0.12799977
140	0xbdaf254e	-0.08552037
141	0xbdce15ce	-0.10062753
142	0x3e03be9c	0.1286568
143	0xbcee8fd6	-0.02912132
144	0xbdd90310	-0.10596287
145	0xbd51fe72	-0.05126805
146	0xbde48cbc	-0.111596555
147	0xbe173c32	-0.14769056
148	0xbe002e42	-0.12517646
149	0x3c906ab5	0.017629007
150	0xbde945e1	-0.113902815
151	0x3d81aab3	0.063313864
152	0xbe2d4dab	-0.16924159
153	0x3d4875f6	0.04894062
154	0x3e0847b8	0.13308609
155	0xbd4b6288	-0.049654514
156	0xbde7b9c1	-0.113147266
157	0x3d259a0d	0.040430117
158	0xbe0c1cf5	-0.13682921
159	0x3d885be7	0.06658154
160	0xbe13ccbd	-0.1443357
161	0x3e2b1ab3	0.16709404
162	0xbe276f33	-0.16351013
163	0x3d9fcbd5	0.0780255
164	0x3dfda609	0.12385184
165	0x3bb2eeb2	0.0054605836
166	0xbada4ae9	-0.0016654405
167	0x3c07745c	0.008267488
168	0xbd2a9033	-0.041641425
169	0x3e0546d7	0.13015305
170	0x3db0cd00	0.08632851
171	0xbda7f418	-0.08200854
172	0xbdba3b6c	-0.09093365
173	0xbdb600f2	-0.08886899
174	0x3dcf3104	0.10116771
175	0x3def9a0c	0.11699304
176	0xbdcb93ba	-0.09940286
177	0xbd1d9ac3	-0.03847767
178	0xbdc4d80f	-0.096115224
179	0x3d568976	0.052377187
180	0xbe1cd959	-0.15317287
181	0xbdfb839a	-0.122809604
182	0x3e1bd6a7	0.15218602
183	0xbd32989a	-0.043602563
184	0xbddb1f55	-0.106993355
185	0x3bfffbb2	0.007811987
186	0xbdf9712b	-0.12179788
187	0x3ce1eeb3	0.027579641
188	0xbd873d74	-0.06603518
189	0xbc4ee497	-0.012627742
190	0x3e0fb828	0.14035094
191	0x3dd1a4cc	0.10236511
192	0x3e079583	0.13240628
193	0xbde443fb	-0.11145779
194	0x3e2bf94c	0.16794318
195	0xbe146997	-0.14493404
196	0xbd690712	-0.05689151
197	0xbe009e64	-0.12560421
198	0xbdce5041	-0.10073901
199	0xbdd33dca	-0.1031452
200	0xbdb5f3f7	-0.08884423
201	0x3bce9b0c	0.006305104
202	0xbd876573	-0.06611147
203	0xbe0d3f73	-0.13793735
204	0x3e167323	0.14692359
205	0xbd6be495	-0.05759104
206	0xbc4718ec	-0.012151938
207	0xbe147b6e	-0.1450021
208	0x3be6490d	0.0070277513
209	0x3ce301f2	0.027710889
210	0xbd1c1808	-0.038108855
211	0xbdc94861	-0.09828258
212	0xbe24f9ef	-0.16110967
213	0xbdcb21a9	-0.099185295
214	0x3da80fa9	0.08206112
215	0xbdff4917	-0.12465113
216	0x3d74dca5	0.059780736
217	0xbdba5e97	-0.09100073
218	0xbdbdd081	-0.092682846
219	0xbdc23232	-0.0948223
220	0xbd8c72c3	-0.068578266
221	0x3daf29e6	0.08552913
222	0x3d5dea67	0.05417862
223	0x3e025304	0.1272698
224	0xbd0fa7bd	-0.035072077
225	0x3dad6a55	0.08467547
226	0xbda1646b	-0.07880481
227	0x3dee6959	0.11641187
228	0x3d95fde1	0.07323814
229	0xbbc74257	-0.0060809064
230	0x3de8747a	0.11350341
231	0x3dbdc13c	0.09265372
232	0xbdd75152	-0.105135575
233	0x3daa7dd9	0.08324785
234	0x3e21df21	0.15807773
235	0x3d631fd1	0.055450264
236	0x3e2e25d4	0.17006618
237	0x3d14dd28	0.036343724
238	0xbe047abf	-0.12937449
239	0xbd3685dd	-0.044561256
240	0xbe167dc7	-0.14696418
241	0x3d2d0f7b	0.04225109
242	0xbd9abb6a	-0.07555278
243	0x3d691958	0.056908935
244	0x3e1e1026	0.15435848
245	0xbe1cc0ee	-0.15307972
246	0xbd0108ea	-0.03150264
247	0xbc25c2d7	-0.010117254
248	0xbd8a81c2	-0.067630306
249	0x3e0ede74	0.13952047
250	0x3db2519f	0.08706974
251	0xbe063ed4	-0.13109905
252	0x3cd51a0f	0.026013402
253	0x3d9b93e0	0.07596564
254	0x3dc49149	0.095980234
255	0xbd625e7b	-0.055265885

conv.0.bias f4 [16]
0	0xbdbfd5c0	-0.093669415
1	0xba303c53	-0.0006722856
2	0x3d8114f5	0.06302825
3	0xbc482557	-0.012215934
4	0x3d26e851	0.040748898
5	0xbe16d771	-0.14730622
6	0x3d258f6f	0.040419992
7	0x3d4b1a3e	0.049585573
8	0x3e185f2f	0.1488006
9	0xbd9dea1e	-0.0771067
10	0x3d91e6fb	0.07124134
11	0x3ce3656c	0.027758323
12	0xbe22c374	-0.15894872
13	0xbe0d3617	-0.13790165
14	0x3df4630c	0.11932954
15	0xbd159b0c	-0.036524817

liner.0.weight f4 [120, 368]
0	0xbd3a91d5	-0.045549233
1	0xbb63888c	-0.003471884
2	0x3d026c97	0.03184184
3	0x3bdc34ce	0.006720162
4	0x3cbf58aa	0.023357708
5	0xbd18db89	-0.03731874
6	0x3c400833	0.011720705
7	0x39c91db0	0.00038359826
8	0xbd32d685	-0.043661613
9	0xbc667a0a	-0.014067182
10	0xbcbb2896	-0.022846501
11	0xbc963a47	-0.018338336
12	0xbc548249	-0.0129705155
13	0xbd07e36e	-0.03317588
14	0xbb265f34	-0.0025386335
15	0xbcd205ed	-0.025637591
16	0xbc84f06a	-0.01622792
17	0x3d49b793	0.049247336
18	0xbd3cd1f0	-0.04609865
19	0x3ca36d9b	0.019949725
20	0x3c209bb4	0.0098027475
21	0xbbd826d0	-0.0065964237
22	0x3d157c9f	0.0364958
23	0x3d24d6c2	0.04024387
24	0x3c2ec342	0.01066667
25	0x3c896945	0.01677383
26	0xbd55e2d3	-0.05221827
27	0x3ceb4b2a	0.028722364
28	0x3d382b01	0.044962887
29	0x3c3ffbcc	0.011717748
30	0x3cb1a218	0.021683738
31	0x3d340694	0.043951586
32	0xbc0af6a7	-0.008481658
33	0xbbae5678	-0.0053203665
34	0x3d40a9c6	0.04703691
35	0xbcde2029	-0.027114945
36	0x3d497a12	0.04918868
37	0x3c968418	0.018373534
38	0xbc34f449	-0.01104457
39	0x3b01bdd4	0.0019796984
40	0x3d006d14	0.031354025
41	0x3cb48a38	0.022038564
42	0xbd356abf	-0.044291254
43	0xba2668b1	-0.00063479977
44	0xbc9d6472	-0.019212935
45	0xbd2ed7e5	-0.04268636
46	0xbd0421ee	-0.03225892
47	0x3d17a190	0.037019312
48	0xbcd67c3f	-0.026182292
49	0xbc913ec0	-0.017730117
50	0xbc893ba5	-0.016752074
51	0xbd26362c	-0.040579006
52	0x3cff11ea	0.031136472
53	0xbcc2bfae	-0.02377304
54	0x3b7f37cf	0.0038943177
55	0xbd36f255	-0.0446647
56	0x3d509a52	0.05092842
57	0xbd3b5bcf	-0.045741852
58	0xbb3d759c	-0.0028909212
59	0xbd08a4a7	-0.03336015
60	0x3cfa7745	0.03057445
61	0xbb7b50d6	-0.0038347743
62	0x3d14a8cb	0.036293786
63	0x3cb8ec2a	0.02257355
64	0x3c150f0d	0.009097827
65	0xbd0d4cb3	-0.034496974
66	0x3b6d0841	0.003616825
67	0xbbcc2a8d	-0.0062306584
68	0xbc28dbca	-0.010306308
69	0xbd1c3d3c	-0.038144335
70	0xbcd277dd	-0.02569192
71	0xbd159a9f	-0.03652441
72	0x3d018cbb	0.03162835
73	0x3d4349ef	0.04767793
74	0x3ce592aa	0.028024036
75	0xbd2e5608	-0.042562515
76	0x3d1860e6	0.037201785
77	0x3d4f6caa	0.05064074
78	0x3ca6e361	0.020372095
79	0xbd2e8047	-0.042602804
80	0xbbf38499	-0.0074315784
81	0x3d37aec0	0.04484439
82	0xbd460cf7	-0.048352208
83	0xbd339f01	-0.04385281
84	0x3d2ca614	0.042150572
85	0x3d2fe2fe	0.042941086
86	0x3d481f7b	0.048858147
87	0x3c4a28b6	0.012338808
88	0xbabba341	-0.0014315621
89	0xbc911399	-0.01770954
90	0xbc56cb63	-0.013110015
91	0xbd13e296	-0.03610476
92	0xbc19fbfb	-0.009398456
93	0x3c521ee1	0.012824745
94	0x3c6c072c	0.014406007
95	0xbd4e9779	-0.050437424
96	0x3c019578	0.007909171
97	0xbd3ce5b5	-0.046117503
98	0x3d282f9a	0.04106102
99	0xbc74560c	-0.014913093
100	0x3c22c0a3	0.0099336235
101	0xbc87e755	-0.0165898
102	0xbd14ba3b	-0.036310416
103	0x3cde9f5e	0.027175602
104	0xbd4534b7	-0.048145976
105	0xbd0d9356	-0.03456434
106	0x3ccc4f07	0.024940027
107	0xbd1b758b	-0.037953895
108	0x3d28dc2b	0.041225594
109	0xbb041ce0	-0.0020158812
110	0xbd207dc6	-0.039182447
111	0x3cc24e22	0.023718897
112	0x3ce89211	0.028389962
113	0x3d19297c	0.03739308
114	0x3b9be3c5	0.004757377
115	0x3ca90730	0.02063331
116	0x3cb0cb54	0.02158133
117	0xbcbeca7b	-0.02328991
118	0x3c035ebb	0.008018191
119	0x3d080526	0.033208035
120	0xbc865c8f	-0.016401557
121	0xbd05eeef	-0.032698568
122	0xbc824530	-0.015902132
123	0x3d2c42c5	0.042055864
124	0xbb887abb	-0.0041650212
125	0xbccee226	-0.02525432
126	0xbc1f3d69	-0.009719231
127	0x3d4cd1ba	0.0500047
128	0xbcbc0c91	-0.02295521
129	0x3c3f9384	0.011692885
130	0x3d28f4f1	0.04124922
131	0x3cbcd5ba	0.023051132
132	0xbd269c47	-0.04067638
133	0x3ba04c31	0.004891895
134	0x3d540b28	0.051768452
135	0x3cb712d3	0.022347843
136	0xbc2e542a	-0.010640183
137	0x3d1694f4	0.036763147
138	0x3b3a17d1	0.0028395543
139	0xbcc0ddfa	-0.023543347
140	0xbadf4ccc	-0.0017036437
141	0xbcfd54c4	-0.030924208
142	0xbc9d15a2	-0.019175354
143	0x3c2eaaf1	0.010660873
144	0x3d1cae9b	0.038252454
145	0xbc488bf7	-0.0122404015
146	0xbd11c20c	-0.03558545
147	0x3a23809f	0.00062371226
148	0x3d19e0fb	0.037568074
149	0x3cb3ceda	0.02194922
150	0x3cde63f1	0.027147265
151	0x3cd21eec	0.02564951
152	0x3bfa90af	0.007646642
153	0x3cf8d617	0.030375523
154	0xbc57c16a	-0.013168672
155	0x3d41d31d	0.047320474
156	0xbd40d858	-0.04708132
157	0xbd19c349	-0.037539754
158	0xbcac2bfb	-0.021017065
159	0x3cd176de	0.025569376
160	0x3d41beeb	0.047301214
161	0xbd389b94	-0.045070246
162	0xbc5ba91b	-0.013407017
163	0xbb9cef69	-0.004789282
164	0x3cf691b2	0.03009877
165	0x3bcfc29f	0.0063403393
166	0xbb9128dc	-0.0044299196
167	0xbc2b1d42	-0.010443987
168	0x3c8040d8	0.01565592
169	0x3a79782d	0.0009516504
170	0x3cbdcd90	0.023169309
171	0x3af86929	0.0018952239
172	0x3a94e9d3	0.0011361189
173	0x3d1878e3	0.03722466
174	0x3cd1660a	0.025561351
175	0xbd3d8eea	-0.04627887
176	0xbd0ddcc8	-0.03463438
177	0xb9b6508e	-0.00034773763
178	0x3c31184d	0.010809016
179	0xbb9e716a	-0.0048352974
180	0xbced5355	-0.0289704
181	0x3cc4cf28	0.024024561
182	0x3ace6e04	0.001574934
183	0x3d303a37	0.043024268
184	0x3c4b42e8	0.012406088
185	0x3c812db6	0.015768867
186	0xbcd7da9e	-0.026349362
187	0x3d04cc6d	0.032421518
188	0x3b2a4c6e	0.0025985497
189	0x3cd04f09	0.025428312
190	0x3d114c82	0.035473354
191	0x3d590c70	0.052990377
192	0x3cce9356	0.02521674
193	0x3d5536ba	0.052054144
194	0x3d369abc	0.04458116
195	0xbbee6c4b	-0.007276093
196	0xbd137f42	-0.036010034
197	0xbd19c665	-0.03754272
198	0x3c8025df	0.015643058
199	0x3d12a459	0.035801265
200	0xbc5cafa4	-0.01346961
201	0x3cd26269	0.025681691
202	0x3d3b2284	0.045687214
203	0xbc0da61b	-0.00864556
204	0x3d1889cb	0.037240785
205	0xbd2bc0b6	-0.04193183
206	0xbc1bb912	-0.009504573
207	0x3b805166	0.0039159534
208	0xbd0ee19a	-0.03488312
209	0xba1b40bc	-0.0005922427
210	0xbd2558f6	-0.040368043
211	0x3cc27446	0.023737084
212	0x3d44ff09	0.048094783
213	0xbd0c968a	-0.034323253
214	0xbc697240	-0.014248431
215	0x3cfc8ce0	0.030828893
216	0x3d2b16a6	0.041769646
217	0xbcf9d22a	-0.030495722
218	0xbd2baf12	-0.041915007
219	0x3b50b28d	0.0031844706
220	0x3d0a10f3	0.03370757
221	0x3d261a40	0.040552378
222	0xbd502f10	-0.050826132
223	0x3b69a630	0.0035652034
224	0xbd42cccf	-0.047558602
225	0x3d351546	0.04420974
226	0xbd2f0ac9	-0.042734895
227	0x3be1c2b6	0.0068896664
228	0xbcb16c67	-0.021658136
229	0xbd0983c4	-0.033572927
230	0xbd07b9e8	-0.03313628
231	0x3c8700d0	0.01647988
232	0x3c732137	0.014839462
233	0x3d08b301	0.033373836
234	0xbd4f00f4	-0.05053802
235	0xbd40e89c	-0.047096834
236	0xbba65350	-0.0050758496
237	0x3c9535d1	0.018214138
238	0x3bf33001	0.007421494
239	0xbd15a50c	-0.036534354
240	0x3caa1f4d	0.020766879
241	0xbce3bb2f	-0.027799217
242	0x3c19dd6f	0.009391173
243	0xbb5f095f	-0.0034032685
244	0xbd535476	-0.05159422
245	0x3b2ad0f6	0.0026064492
246	0x3c9e9ed2	0.01936284
247	0xbce93dfa	-0.028471936
248	0x3c0da5a2	0.008645447
249	0xbce4aa32	-0.027913187
250	0x3d2943fb	0.041324597
251	0x3c0425b7	0.008065633
252	0x3d03b84a	0.032158174
253	0xbd4bc520	-0.04974854
254	0xbd3a7aa1	-0.045527104
255	0xbc0dc15e	-0.008652059

liner.0.bias f4 [120]
0	0x3d19b8a7	0.037529614
1	0x3c844f16	0.016150992
2	0x3c86944c	0.016428135
3	0xbc970745	-0.018436084
4	0xbb81190d	-0.003939754
5	0xbbd7efbd	-0.0065898583
6	0xbc6edd33	-0.014579105
7	0x3d3495d9	0.04408822
8	0x3c783552	0.015149431
9	0xbc50e9fb	-0.012751098
10	0x3d1881c8	0.037233144
11	0xbd507796	-0.050895296
12	0xbba2e954	-0.0049716625
13	0x3c9a3976	0.018826228
14	0x3c861a2b	0.0163699
15	0xbc857e1f	-0.01629549
16	0xbc9e0b44	-0.019292481
17	0xbc4575d9	-0.012052023
18	0xbc85aa9a	-0.0163167
19	0x3cc0ecf0	0.02355048
20	0x3c802aa7	0.015645338
21	0xbd00596f	-0.03133529
22	0xbca3d317	-0.019998116
23	0x3cf9c496	0.030489247
24	0xbd52cbb8	-0.051463813
25	0xbc5773b5	-0.013150145
26	0xbc748e5e	-0.014926521
27	0xbcdeed6f	-0.027212827
28	0xbcb1d0f0	-0.021706074
29	0x3ca92274	0.020646311
30	0xbd1e6fb2	-0.03868074
31	0x3d226429	0.0396463
32	0x3c848fa1	0.016181769
33	0xbc0eab5b	-0.0087078465
34	0xbc4c7bd2	-0.012480693
35	0xbc7206f2	-0.014772164
36	0x3cbe1590	0.023203641
37	0x3c92aa98	0.017903611
38	0x3ca92834	0.020649053
39	0x3c379853	0.0112057505
40	0x3cd42665	0.025897214
41	0xbcb14cc5	-0.021643052
42	0xbb1c8069	-0.002388025
43	0xbd36ddca	-0.04464511
44	0x3cce13f3	0.025155997
45	0xbd0c6f6f	-0.03428596
46	0x3c575474	0.013142694
47	0xbd23c921	-0.039986733
48	0x3ced1685	0.028941402
49	0xbb69c9d2	-0.0035673273
50	0x3c616416	0.0137567725
51	0x3ba9b53a	0.0051790746
52	0x3d325a82	0.043543346
53	0x3d018457	0.03162035
54	0x3c44f0d9	0.012020313
55	0xba06cab0	-0.0005141897
56	0xbd318ab1	-0.043345157
57	0xbc844ee9	-0.016150909
58	0x3b1a17c9	0.0023512712
59	0xbc920718	-0.017825648
60	0xbca33fb2	-0.019927833
61	0xbc86a1ff	-0.016434668
62	0xbc24c6b4	-0.01005714
63	0xbd143a3e	-0.036188357
64	0x3d225c9c	0.0396391
65	0xbd0192e5	-0.03163423
66	0xbd0c203a	-0.03421042
67	0x3aaf30e5	0.0013366012
68	0x3d53a19f	0.051667806
69	0x3beda128	0.0072518773
70	0x3cd70e48	0.026251927
71	0x3a679672	0.0008834369
72	0x3d471de1	0.04861248
73	0xbcb9aebe	-0.022666331
74	0x3c451e4d	0.01203115
75	0xbca10b88	-0.019658819
76	0xbcf6ed11	-0.030142339
77	0xbd03b83b	-0.032158118
78	0x3d3aba30	0.04558772
79	0x3d20542f	0.039142784
80	0xbd266fc5	-0.040633935
81	0x3cefb138	0.02925931
82	0xbd4db546	-0.050221704
83	0x3b54a5cb	0.0032447453
84	0xbd2910d4	-0.041275814
85	0xbd40b852	-0.04705078
86	0x3d2bd78b	0.041953605
87	0xbc1c4e89	-0.009540209
88	0x3d2e6952	0.04258091
89	0xbd100fef	-0.035171445
90	0x3d2e841c	0.042606458
91	0x3cbad324	0.022805758
92	0xbccd2c34	-0.025045492
93	0x3c9d51d4	0.019204058
94	0xbca4851a	-0.020082999
95	0xbb942d02	-0.004521967
96	0x3c022e65	0.007945632
97	0xbc864aef	-0.016393153
98	0x3cd380a0	0.02581817
99	0xbc7b0e41	-0.015323223
100	0x3d1914ff	0.03737354
101	0x3ca55e17	0.020186467
102	0xbd25e852	-0.04050476
103	0x3c975d6b	0.018477162
104	0x3cd59544	0.026072152
105	0xbce56b3c	-0.028005235
106	0x3c59cf67	0.0132940775
107	0x3cde4db6	0.027136665
108	0x3d09da1e	0.03365528
109	0xbd24c34a	-0.040225305
110	0x3cb62ed1	0.02223912
111	0x3c44d080	0.012012601
112	0x3d3a1274	0.045427755
113	0xbc99f9a0	-0.018795788
114	0xbd272fe9	-0.040817175
115	0x3c001ab5	0.007818867
116	0xbc805c4b	-0.015669009
117	0xbba177d7	-0.004927616
118	0x3b91241a	0.0044293525
119	0xbc05f03a	-0.00817495

liner.2.weight f4 [1, 120]
0	0xbc01f6f0	-0.00793241
1	0x3d88a0b5	0.066712774
2	0x3b8e000e	0.0043335026
3	0x3d97cd41	0.07412196
4	0xbba2457f	-0.0049521322
5	0x3d40e09a	0.047089197
6	0x3d48aa3d	0.048990477
7	0xbca3f23d	-0.02001297
8	0xbbcc990a	-0.0062438296
9	0x3cb43cb0	0.022001594
10	0x3d7b1a9c	0.061304674
11	0x3b13d82e	0.0022559273
12	0xbd1b2fd5	-0.037887413
13	0x3ccac5c2	0.024752501
14	0x3c2a23d4	0.010384519
15	0x3d115638	0.035482615
16	0xbcc602ef	-0.02417132
17	0xbbdd31db	-0.006750328
18	0x3c723112	0.014782207
19	0x3d3584c7	0.04431608
20	0xbc148e9b	-0.009067203
21	0x3d39b457	0.045338
22	0x3cffd4a2	0.03122932
23	0x3c79050f	0.01519896
24	0xbbcc8f60	-0.0062426776
25	0xbd3b339f	-0.045703527
26	0x3d4e7635	0.0504057
27	0xbd933120	-0.07187104
28	0xbae51621	-0.0017477908
29	0xbbe6ca29	-0.0070431423
30	0xbc924937	-0.017857177
31	0x3d27d47a	0.040974118
32	0x3ca3017b	0.019898167
33	0xbc6d5a7f	-0.014486908
34	0xbd626a9d	-0.055277456
35	0xbd1047fc	-0.0352249
36	0x3d637e2a	0.05554024
37	0x3d89205a	0.06695624
38	0xbda2d461	-0.07950664
39	0xba5690d4	-0.0008185033
40	0x3d456cde	0.048199527
41	0xbc8ba705	-0.017047415
42	0xbd190d83	-0.0373664
43	0xbc003b34	-0.007826615
44	0xbc475854	-0.012167055
45	0xbc9df2c8	-0.019280806
46	0xbcf8982a	-0.030345995
47	0x3c5db745	0.013532464
48	0xbcfbcbdf	-0.030736862
49	0x3ba0e52c	0.004910132
50	0xbd08d24b	-0.033403676
51	0x3d5e1284	0.054216877
52	0xbbe02caf	-0.006841264
53	0x3b5f8574	0.0034106644
54	0x3cc9996c	0.02460929
55	0xbd35b2e6	-0.044360064
56	0x3d0a0720	0.0336982
57	0x3d49cfc8	0.04927042
58	0x3b79a617	0.0038093382
59	0x3dbf65dc	0.093456
60	0x3d047058	0.0323337
61	0x3d1ada8e	0.037806086
62	0xbcb24ebb	-0.021766057
63	0xbd3f23f1	-0.046665136
64	0xbc2b088e	-0.010439051
65	0xba8fb2c3	-0.0010963309
66	0xbd1ca2bb	-0.03824113
67	0x3d5a55d5	0.053304512
68	0x3c4c219f	0.012459188
69	0xbc394370	-0.011307582
70	0xbc40f1e7	-0.011776424
71	0xbbded7cc	-0.0068006273
72	0xbd18ad63	-0.03727473
73	0xbce6fdfe	-0.028197285
74	0xbbf915f5	-0.0076014944
75	0xbc1a836d	-0.009430748
76	0x3cb65a24	0.02225978
77	0x3d37507c	0.04475449
78	0x3d24f01b	0.040268045
79	0x3cb5b03d	0.022178764
80	0xbd2ac9b4	-0.041696265
81	0xbc8d3aa4	-0.017239876
82	0xbce714b1	-0.028208109
83	0xbd9a90d2	-0.075471535
84	0xbc57cf9b	-0.013172056
85	0x3d0fb46f	0.035084184
86	0x3b0d6249	0.0021573475
87	0xbbe40aff	-0.0069593186
88	0xbd813606	-0.06309132
89	0xbd18174a	-0.037131585
90	0xbd3da731	-0.046302024
91	0xbd270d08	-0.040783912
92	0x3c944e68	0.018103793
93	0x3d492ad0	0.049113095
94	0x3d7cbc56	0.06170305
95	0x3cf367a7	0.029712511
96	0x3d2063b2	0.039157577
97	0x3d0e16fc	0.03468989
98	0x3cf94ed4	0.030433096
99	0xbc8327a7	-0.016010119
100	0x3b8d87f8	0.0043191873
101	0xbc08a993	-0.008341211
102	0xbdb3202a	-0.08746369
103	0x3d085d77	0.03329226
104	0xbd3afd92	-0.04565198
105	0xbb630632	-0.0034641144
106	0xbc7efc76	-0.015563121
107	0xbbdebdd9	-0.006797534
108	0xbca7d961	-0.020489397
109	0xbcf88bce	-0.030340102
110	0x3ca8735a	0.020562816
111	0xbd5f57a8	-0.054526955
112	0x3cac80fa	0.021057595
113	0x3c7616a2	0.0150200445
114	0xbc9b90bc	-0.018989913
115	0x3cf205f2	0.02954385
116	0xbb83e40a	-0.004024987
117	0xbc419a5d	-0.011816588
118	0xbd54a3f6	-0.051914178
119	0x3d36987f	0.044579025
