spring21/lab/checkpoint.pt (torch, 182373 bytes, 5 tensors)

conv.0.weight f4 [16, 7, 5]
00000000: e93b 20bd 1b6f 4bbb 90ee c6bd c558 e03d
00000010: d9e3 1dbe 5dd0 003e 0648 093e 4e17 9ebc
00000020: d9e8 d63d e07e b03d 4187 f5bd 2cbf 803d
00000030: e663 6539 2071 063c de04 973d 8a3a e63d
00000040: 67bf 143e 70e4 e63d 1639 1c3d a854 a6bd
00000050: 5e72 d7bc 3716 2f3b 7e43 423c c766 eb3c
00000060: 9dd4 b03d 3aec 723d d2df d5bd 487c 1f3e
00000070: f662 a4bd a445 033e ba29 ef3d 7e41 f73d
00000080: 0bea 213e e505 60bc e268 ecbd 1f7f c03c
00000090: 3c26 223c b0dd 57bd 59f2 2c3d dc09 ae3d
000000a0: ffde de3c f931 64bd 35a3 bf3d 0608 b03c
000000b0: af51 283d 06d7 aa38 407a ee3c 94dc d5bd
000000c0: 563f dd3d 57c8 28be 875a 183e 3478 80bd
000000d0: 006d a23d ea64 f23d 47f9 93bd c266 b5bd
000000e0: bc40 243e 8097 dabd ca99 ae3d d243 083e
000000f0: ee40 a2bd 56ae 1a3e e645 f73d cb30 6d3d
00000100: cd9d 083e 00da 1abe 8048 153e ec0a 933c
00000110: 7f04 25be 28f4 90bd 60ab 47bd 06f9 8cbd
00000120: d37b df3c 5ecb 46bd 335d b3bd 6e7f 233d
00000130: cf9b 13be 1854 003d e255 10be 3794 2d3d
00000140: 3e62 16be b92b c33d 18f7 303c a411 af3d
00000150: 65be bdbd 1814 d8bb 3636 2a3d 59ad a3bc
00000160: bc35 123e 9709 24be 1a81 af3d bbb2 8dbb
00000170: c781 1dbd 7bc7 94bd 7d22 88bd 9089 99bb
00000180: 717a e23d a72f 3ebc 3a65 213e 230c 953d
00000190: 7d3a 603d 8a0d 27bc 6aa6 633d 7768 ec3d
000001a0: 5bff 15be 33ec c73d edf6 8cbd 05ee 1a3e
000001b0: f276 fabc a80f 82bd 02a0 2cbe e222 c33d
000001c0: bd3c 123e e7b2 cdbd ae30 223e 1d2f e63d
000001d0: 2ff2 733d becd c8bd 94cd 02be a0a2 3fbc
000001e0: 2e5d 1c3e d5be f5bd e892 eebc 4ea9 6a3b
000001f0: 11d0 dabd e8e7 29be 196e c7bb 7f8c 373d
00000200: 275e f1bd 382a 263e 2bf4 d33d bf91 b23d
00000210: 8999 0fbe 4de3 1d3e 1c55 803d 9f21 8cbd
00000220: bd2c 1c3e 0686 913d 48b5 f5bc db23 a7bd
00000230: 59bb 123e 8b2a 3e3d 9f7f 413d 41ec e33c
00000240: ce63 e9bc ac64 f4bc 6062 eaba 19dd eb3d
00000250: 3232 30bd d44f 193e b905 c43c 4642 d33d
00000260: 7fd5 f4bd af77 083e 63ef 193e 04ec ab3d
00000270: 6b41 5e3d 2ce1 ce3d 7d76 a73d 8523 22be
00000280: 7ada dbbd e5c6 16bc 9b67 223d c446 dcbd
00000290: aace c23d b43e 9e3b ae08 e6bd d19b 933d
000002a0: eba4 e8bd ee9e 8e3d 5094 523d 8692 f7bd
000002b0: d95d 733d 2e72 2a3d bac0 ca3d bbb8 71bd
000002c0: efc9 b43d 3c4d 31bd 49d7 9b3d e096 0bbd
000002d0: c359 2bbe e775 c83d 2124 94bd 6d55 af3c
000002e0: 41dc 01bb 631f 913d 43d0 d7bd f418 60bd
000002f0: c2ce 16be 25e3 1b3e 2fc5 8fbd 0cb1 d93d
00000300: cbc0 2bbe 8570 cdbc 3645 193e a189 f9bd
00000310: 04d1 76bc 570e 7d3d 0cb9 053e fbc8 bcbc
00000320: b49e 87bd 7998 11be b8ce c13d 2a09 c5bd
00000330: 145c 02be 0d7b 42bd cebf 3e3c f4d3 4dbd
00000340: 0114 0e3e 7495 bebd 4ebd 1cbd c666 8d3d
00000350: e394 a3bd 966c eabd ae12 6f3d 8aac 153e
00000360: ff97 a8bd 3907 f8bd 2290 3abc 221c 44bc
00000370: 5e19 a5bd b5b6 2ebd ef2f 983d 1022 68bd
00000380: ffaf 77bc 29bd bb3d 8340 ab3d 447a d2bd
00000390: 52bf 2bbe b1fc 0ebd 2aa7 07be 8112 623d
000003a0: 8aae 113e 6a88 c2bd 3556 073e 76e2 293c
000003b0: 39bd ef3d d1ff a33d e1de 99bc 022c d13c
000003c0: 1a11 04be 464f 3ebb 9dab 033e 44c8 cdbd
000003d0: bf7b b4bd 5ccd 39bd fa4d 87bd 8941 a4bd
000003e0: 5f38 37bd 9ac6 96bc c9b6 253e 1136 343b
000003f0: 09d6 e6bd 1b4b c3bd 6580 bf3d c457 203e
-0.039119635 -0.0031041566 -0.09713471 0.109544314 -0.15418948 0.12579484 0.13406381 -0.019298222
0.10493631 0.086179495 -0.11988688 0.06286463 0.00021876357 0.008205682 0.07373975 0.11241634
0.14526139 0.1127404 0.03814038 -0.08121616 -0.026299652 0.0026716122 0.011856912 0.028735531
0.08634303 0.059307314 -0.10443081 0.15574753 -0.08026688 0.12819535 0.116778806 0.120730385
0.15811937 -0.01367328 -0.11543442 0.023498116 0.009896811 -0.052701652 0.04222331 0.08497974
0.027205942 -0.05571172 0.09357301 0.0214882 0.041093525 8.146283e-05 0.029111028 -0.104424626
0.10803096 -0.16482674 0.14878283 -0.06272927 0.07930946 0.11835654 -0.0722528 -0.0885749
0.16040319 -0.106734276 0.08525427 0.13307121 -0.079225406 0.15105566 0.12073879 0.05790786
0.13341446 -0.15122223 0.14578438 0.017949544 -0.16114996 -0.07077819 -0.04874742 -0.06883435
0.027280724 -0.04853379 -0.08758011 0.03991645 -0.14414905 0.031330198 -0.14095262 0.042377677
-0.14685914 0.09529824 0.010801099 0.085482866 -0.092648305 -0.0065941922 0.041555606 -0.01998012
0.1427831 -0.16019283 0.08569546 -0.004324285 -0.038453843 -0.072646104 -0.06647203 -0.004685588
0.1105851 -0.011608041 0.15761271 0.072777055 0.05474328 -0.010196099 0.055578627 0.115433626
-0.14648192 0.09761848 -0.06883035 0.1512986 -0.030574296 -0.063506424 -0.16857913 0.09528138
0.14280982 -0.100438885 0.15838882 0.11239455 0.059557136 -0.09804867 -0.12773734 -0.011696488
0.1526992 -0.11999289 -0.029122785 0.003580648 -0.10684217 -0.16592371 -0.0060861227 0.044811722
-0.11785536 0.16227043 0.10349306 0.08719205 -0.14023413 0.1541874 0.06266233 -0.0684235
0.15251441 0.07105641 -0.029993668 -0.08161136 0.1432928 0.04642729 0.04724085 0.027822616
-0.028489973 -0.02983316 -0.0017882101 0.115167804 -0.04301662 0.14971858 0.02392851 0.10315375
-0.11954784 0.13326906 0.15032725 0.08394626 0.054261606 0.10101542 0.08176897 -0.15833862
-0.107350305 -0.009202694 0.039649587 -0.10755685 0.09512074 0.004829252 -0.11232124 0.07207454
-0.113595806 0.06963907 0.051410973 -0.12088494 0.059415672 0.041612796 0.09900041 -0.059014063
0.08827578 -0.043286547 0.07609422 -0.034079432 -0.1673346 0.09788113 -0.072334535 0.021403039
-0.001981512 0.07086065 -0.1053777 -0.054711297 -0.1472731 0.15223368 -0.07020032 0.10629472
-0.16772763 -0.025078068 0.14967808 -0.12184454 -0.015064482 0.061781254 0.13058871 -0.023045054
-0.06622067 -0.1421832 0.094632566 -0.096208885 -0.12730438 -0.04748063 0.0116424095 -0.050250962
0.13874818 -0.0930585 -0.038266473 0.06904368 -0.07987382 -0.114464924 0.058367424 0.146166
-0.08232116 -0.121107526 -0.011386903 -0.011969598 -0.08061479 -0.04265471 0.074310176 -0.05667311
-0.015117644 0.09166939 0.08361914 -0.102772266 -0.16772202 -0.034908954 -0.13247362 0.055193428
0.14226738 -0.09498675 0.13216479 0.010368934 0.11706013 0.080077775 -0.018783035 0.02553368
-0.12897149 -0.002903895 0.12858434 -0.10047963 -0.08812665 -0.04536186 -0.0660667 -0.08020312
-0.044731494 -0.018405247 0.16183008 0.0027498046 -0.11271293 -0.095358096 0.09350661 0.1565848

conv.0.bias f4 [16]
00000000: 2164 1fbe 5db4 79bb 7d01 c2bd e8d8 293e
00000010: 7372 6abd e00a eabd 6114 cebd ed79 2bbe
00000020: a4f8 abbc 5025 e0bc 7790 cd3d 7aac 103d
00000030: 22bd 833c 7b65 77bc 7c03 fe3d ff17 113e
-0.1556554 -0.003810189 -0.0947294 0.1658665 -0.057238054 -0.114278555 -0.10062481 -0.1674573
-0.020992585 -0.027361542 0.1003732 0.035320736 0.016081396 -0.015099878 0.12403008 0.1416931

liner.0.weight f4 [120, 368]
00000000: 53dd 03bc 82f5 543c e077 abbc b490 d4bc
00000010: 6f15 1ebb 5893 673c ff6e 39bd 5432 343d
00000020: 35c1 a93c 9607 a53c e2e5 0b3d bbc7 98bb
00000030: 97a8 023d 6fd6 133d b314 c9bc cd9b 1bbd
00000040: 76ea 44bd f141 45bd db43 303d 2bc9 4bbd
00000050: bf0c 3cbd 696a 493d 51ad f73a 55cc c1bc
00000060: 6cb5 0cbd abca ecbc aebb 29bd 79e0 4f3d
00000070: 6618 90bc 56ac 253d 26e4 8f3b 23df 233c
00000080: a953 273d 072a 31bd 7c83 003d be1f b6bc
00000090: f5e7 3fbd 51d6 5139 9e4e 813b ef06 d53a
000000a0: bea4 f0bc fff1 31bd 3b38 fbbb c11d 09bc
000000b0: 7498 463d 6b25 edbc 3c4c 6b3c 9ac1 903b
000000c0: d7c8 283d c75c 073d d0d0 7bbc 90ba 84bc
000000d0: c23d 3cbd 9782 b1bc c07b babc 3446 6dbc
000000e0: 65ad f3bb 2003 1c3c 1242 2dbd 3f8e 8c3c
000000f0: a8a4 adbc bc2a 4b3d 1015 c7bc 61c7 323c
00000100: 9746 f33c 6752 06bd 493d 133c 8b00 8d3b
00000110: c818 363d d559 423c 3cd9 d23c 2f6a 8dbc
00000120: 6b7c 36bd 8c12 6bbc 4db6 b73c 121a 12bd
00000130: caf5 11bd 6434 583c 202e 763b 81c0 9b3c
00000140: d189 22bd d292 443c b7f6 463d 170a 03bd
00000150: 6466 3fbd fe58 02bd 1c35 153c 6580 cebc
00000160: ed76 4ebd 5a45 953c 5017 0b3d 62bb 443d
00000170: 8d18 f23c 3c47 febc e36d 24bd 8a35 f7bb
00000180: 5644 3dbd b05d ef3c 545c 083d a548 b73c
00000190: 1b60 18ba 28eb 133c b133 d23a d7c9 f63c
000001a0: d605 09bc 8e98 0fbc e240 36bd a53b 903c
000001b0: 2883 773c e04b 2d3d 8d4e 593c bc54 433d
000001c0: c6dd 563d f6fa 483a 024f cb3b a30f 3abd
000001d0: a4ab 293d 9c01 7cbb 25ce 9a3b 256e 88bc
000001e0: 9fe6 363d 39d6 1f3d 92d5 9f3c fee2 42bc
000001f0: 0d8c ca3c ccd3 273b 0d88 8b3b 3af7 113d
00000200: f73f e5bc f504 473b e509 edbc 939e db3c
00000210: 708b e8bc 090f 95bc 4032 b83c c07f 023d
00000220: 6ca1 54bc 65a1 17bb f42f ccbc af25 203c
00000230: d7eb 02bd 6ced 06bd ac9a 323d 56f1 bbbc
00000240: 57ae 373d d4a1 3dbd 2e97 95bc ebfa 30bd
00000250: 3d02 8fbc c7ec 0f3d 5b9e d0bc bb2f 04bd
00000260: 91d8 743c 0ca2 223d 023d 093d 7d38 4bbd
00000270: f54a c2bb ac88 993c 8084 c5bc 91a4 203d
00000280: 021e 633b 6a80 093d 171b 4b3d d0c6 893c
00000290: 9ce5 13bd 827e 183c c0dc c0bb 9d39 3e3d
000002a0: 457c 9d3c 357d e5bb 3a66 33bd f6d5 2ebd
000002b0: efb1 b33c 0a0d 823c 3803 013d 0dbd 87ba
000002c0: 7cd5 8b3a 7c41 23bc 01e4 133d 070e 25bd
000002d0: 5e35 4d3c e486 c7bb fa68 2f3c 9df4 e23c
000002e0: 855d 1a3d 7698 c3bc 6859 a0bc 85a0 193d
000002f0: 8dfa d9bc 073a b53c b7b3 22ba 4d77 2e3d
00000300: dcc8 35bb 4152 d63c 5e53 b7bc 7315 f0bc
00000310: cd39 673c 9b20 22bd 51fa 0fbd b46f da3c
00000320: b9f9 eabc 0ebf 053c b478 c53c 9f46 84bc
00000330: 244b 0ebd e6de 39bd e491 13bd 4e6e 2a3d
00000340: 6b7b 273d cd10 13bd fafa 8abc ca06 ecbb
00000350: 2121 04bc c042 f23c 2ca2 4a3d f692 d1bc
00000360: 7253 123c b408 bf3c 1c28 f53c 5f44 d7bc
00000370: 47bb a8bb 9d1e 00bd df66 09bd 062e 19bc
00000380: f45b 3b3d 856f 2ebd 55e8 cf3c b0ae 4a3d
00000390: a642 1dbc 0be3 47bd d270 18bc 05e4 253d
000003a0: 6cc3 48bd 0a2c 403c 20a2 0e3d ac2d 72bc
000003b0: ce84 14bd 3c15 f73c afca 87bc 4d69 e83c
000003c0: 6742 aabc 0bdb 0b3d 7251 d0bc fff8 bc3b
000003d0: 6ad7 a53b 303f 8fbc f55b 23bc 79fc dbbc
000003e0: 398d 29bd 1823 b43b c9df 273d a6b9 e73c
000003f0: 7694 19bb 4f15 febc 41dc 823a d8af b53a
-0.008048373 0.012997987 -0.020931184 -0.025947906 -0.0024121662 0.014134251 -0.04527187 0.04399331
0.020722011 0.020145219 0.03415478 -0.0046624816 0.03189906 0.03609317 -0.024546003 -0.03799038
-0.048075162 -0.04815859 0.043033462 -0.049752396 -0.045910593 0.049173746 0.0018896257 -0.023657003
-0.034352705 -0.028905233 -0.04143875 0.050751183 -0.01758976 0.040447555 0.004391211 0.01000193
0.04085127 -0.04325297 0.031375393 -0.022231933 -0.04685207 0.00020011632 0.0039461395 0.0016252677
-0.02937543 -0.043443676 -0.0076666153 -0.00836891 0.048485234 -0.028948506 0.014361437 0.0044176104
0.04120716 0.033047464 -0.015369609 -0.016202241 -0.045957334 -0.021668715 -0.022764087 -0.01448207
-0.0074364417 0.009522229 -0.042299338 0.017157672 -0.021196678 0.0496013 -0.024302036 0.010911793
0.029696746 -0.03279343 0.0089867795 0.0043030432 0.044457227 0.011862238 0.025738351 -0.017262546
-0.044552248 -0.014347684 0.022425795 -0.035669394 -0.035634793 0.013196085 0.0037564114 0.019012691
-0.039682213 0.011997895 0.04857513 -0.031992044 -0.046728507 -0.03182315 0.009106901 -0.025207708
-0.050406385 0.018221546 0.03395778 0.048030265 0.029552722 -0.031039827 -0.04014386 -0.007544224
-0.04620775 0.029219478 0.033291176 0.022373507 -0.00058126607 0.009028234 0.0016037134 0.030125542
-0.008363208 -0.008764399 -0.04449547 0.017606566 0.015106954 0.04230869 0.013263357 0.04768823
0.052457593 0.00076667906 0.006204487 -0.04542507 0.041423455 -0.0038453108 0.0047242814 -0.016654084
0.04465353 0.039022658 0.019511018 -0.0118949395 0.024724985 0.0025608419 0.004258162 0.035636164
-0.027984602 0.0030367945 -0.028935382 0.026809013 -0.028386801 -0.018195646 0.022484899 0.031860113
-0.012977939 -0.002313697 -0.02492521 0.0097746095 -0.031963196 -0.032941267 0.043604538 -0.022942226
0.044843998 -0.04629691 -0.018260565 -0.043208044 -0.017457122 0.035137918 -0.025466135 -0.03227208
0.014944212 0.03970532 0.033505447 -0.04961442 -0.0059293457 0.018741928 -0.024111032 0.039219443
0.0034655337 0.03356973 0.04958638 0.016818434 -0.036107644 0.009307506 -0.0058856905 0.046441663
0.019224295 -0.007003451 -0.043798663 -0.042684518 0.021935431 0.015875358 0.03149721 -0.0010356024
0.0010668482 -0.009964343 0.036106113 -0.04029658 0.012524931 -0.0060890783 0.010706181 0.027704531
0.037686843 -0.02387641 -0.019573882 0.0375066 -0.02660873 0.022122396 -0.0006206589 0.042594243
-0.002773813 0.026162269 -0.02237862 -0.029307103 0.014112902 -0.039581876 -0.03515083 0.026664592
-0.02868353 0.008163227 0.024105407 -0.016146956 -0.03473963 -0.04537859 -0.036027804 0.0416091
0.040889185 -0.035904694 -0.016965378 -0.0072029578 -0.008064539 0.029572845 0.049471065 -0.025582772
0.008931028 0.02331958 0.029926352 -0.026277719 -0.0051492783 -0.031279195 -0.03354537 -0.009349352
0.04574199 -0.042586822 0.02537934 0.049483 -0.00959841 -0.04880051 -0.009304242 0.04050066
-0.049014494 0.01172925 0.034822583 -0.014781397 -0.036259465 0.030161493 -0.01657614 0.028370524
-0.020783616 0.034144443 -0.025429461 0.0057669873 0.0050610797 -0.017486185 -0.009970655 -0.026853787
-0.041394446 0.0054973476 0.040984903 0.028286766 -0.0023434437 -0.03101602 0.0009983854 0.001386161

liner.0.bias f4 [120]
00000000: 2c8e b5bc 5ccf 533c 3f28 c8bc 284c edbc
00000010: f4b7 87bb ebab 95bc f6bd f6bc 03b7 1c3d
00000020: 0a84 ca3c 20d1 143c 8a74 393d 2c26 9cbc
00000030: 3d5f 473c cc48 c63c b479 0f3d 8074 39bc
00000040: 453f 70bc 55a4 053d 35dd 16bc cdec b13c
00000050: 50c6 db3c fa52 46bd da74 41bd a4f3 313d
00000060: 9296 b93b 5ad6 483d 5527 08bd ec3c 34bd
00000070: a457 533d 192a 363d b51c 61bc c914 0dbd
00000080: 5ecf 38ba e29c cf3c 8106 ba3c fbe9 923c
00000090: bf94 4e3d 45bb 283d 88bb b83c bca8 3ebc
000000a0: 7d33 043d 3658 ab3c 3391 a1bc ec81 103d
000000b0: fccb 913b 28e6 d2bc 83be 83bc 0d5c 3dbd
000000c0: fd8f 4abc a351 0dbc c25f e33c cb53 743b
000000d0: 67d7 f7bc 6c34 043d 464a 403d 1a54 a33c
000000e0: 5b38 263d 6a34 073d b234 e3bc dc57 72b9
000000f0: c2f0 d6bb b97c cfbc 2f1e 163d b12c 663c
00000100: 8dcb 35bc 5916 abbc 24e3 383c 6c51 47bd
00000110: 5aa3 18bd 512c cbb9 f902 1b3d 70aa cd3c
00000120: 746d cebc 1a40 1a3d 10a2 34bc 721f b23c
00000130: 320a 323d e199 3dbd a45b 59bc c028 11bd
00000140: d37e 843b abb1 803b ee7f 753c 4c52 bb3a
00000150: 249c 533c 3642 e6bb 00af 4e3d 39d2 27bd
00000160: 6766 363d 7516 febc 2137 1fba d162 223c
00000170: 14a5 9c3c 1cf6 2abd c587 15bd b64d dc3c
00000180: 3a43 293d 3ceb 0dbc b807 2cbd 1dfe 463c
00000190: c987 2dbb ba41 993c 1570 403d cddd 47bb
000001a0: b5fe b0bc b38e 2ebd ec9d cc3b 65ee 323d
000001b0: 59d9 0f3d cf3d b9bc b515 8b3c 672d b33c
000001c0: 8c5d 7f3b c8eb ba3c 8226 5d3c 730d e5ba
000001d0: a72a a73c df38 fd3c 426d bebc 1f9d 5c3c
-0.02216252 0.012927856 -0.024433253 -0.028966978 -0.004141802 -0.018270453 -0.030119877 0.03826047
0.024721164 0.009083062 0.045277156 -0.01906117 0.012168703 0.024204634 0.035028175 -0.01131928
-0.014663522 0.032627422 -0.009208013 0.02171936 0.026827961 -0.048418976 -0.04723058 0.043445244
0.0056637013 0.049032547 -0.033240635 -0.044003412 0.051597252 0.04447374 -0.013739754 -0.03444365
-0.0007049943 0.025343362 0.02270818 0.017933836 0.050434824 0.04119422 0.02255036 -0.011636909
0.032275666 0.020916086 -0.019722557 0.035280153 0.0044493657 -0.025744513 -0.016082054 -0.046230365
-0.012363431 -0.008625421 0.027755622 0.003728139 -0.030254079 0.032276556 0.046945833 0.019937564
0.04058109 0.03300897 -0.027735088 -0.00023111649 -0.0065594623 -0.025328027 0.03664988 0.014048741
-0.011095894 -0.02088468 0.011284623 -0.048661634 -0.03726516 -0.00038752196 0.03784463 0.025105685
-0.025198676 0.03765879 -0.011024967 0.02174351 0.043466754 -0.04628933 -0.013266478 -0.035439253
0.004043439 0.0039274297 0.014984114 0.0014291494 0.012915645 -0.007026936 0.05045986 -0.04097197
0.044531252 -0.031016568 -0.00060735835 0.009911255 0.019121684 -0.041738614 -0.036506433 0.026892524
0.041323878 -0.008662041 -0.04199955 0.012145546 -0.002647864 0.018708099 0.04698189 -0.0030497194
-0.021605829 -0.042616557 0.0062444117 0.043684382 0.03511939 -0.02261248 0.016978124 0.021872235
0.003896567 0.022817507 0.0134979505 -0.0017475322 0.02040608 0.030910907 -0.023245458 0.013465195

liner.2.weight f4 [1, 120]
00000000: a888 4d3d 43d5 593d a9f2 eabc c0d1 1a3c
00000010: 4e32 90bd 7648 c73c 2647 9fbd cc47 21bd
00000020: 7ab1 9ebd c607 82bc b886 8cbb b13a 89bd
00000030: bbc1 4d3d 7bff 933b 12ad ddbc 62ce a3bd
00000040: dd46 e03c 4ad5 92bd f5dc fbba 0e6b d13c
00000050: 2226 1cbd 1c40 a73d 125d ed3c 071a 7e3d
00000060: f41e 54bd c9ab 42bd 1cba b73c fb21 f03c
00000070: 53e7 5fbd 2ab1 843d fd89 44bd 14de 303c
00000080: 0eab a3bd c67f 4cbd 605a dc3c 358a 48bd
00000090: 2c36 0d3d 32b3 263c a2b4 b0bc a9b1 ac3d
000000a0: 2229 36bd 1ed4 363d 4b9a 653c cc84 053d
000000b0: 6905 b2bc daad d33c af07 31bc d946 103d
000000c0: 49cc 12bc beed d0bc ec7d f13c a2e2 703c
000000d0: 441a 4f3d e3a1 4e3c fe44 3a3d f433 673d
000000e0: a35d 0bbd d6f1 ac3b e880 8f3d fcaa a3bd
000000f0: 5907 0c3d ec7a 98bd f4ab f03c 7c9e 1cbd
00000100: d6ce 493d 687b 733c 9f99 2cbd 1fee 8d3c
00000110: bc0d 5e3d ada1 1e3d a291 883d d465 8ebd
00000120: 1a91 9c3c a365 fd3b 1963 70bd fc21 853d
00000130: 3555 9bbc b05a 8ebd 18d6 643d 632d c3bc
00000140: 08af efbc 73b4 ad3c 34cc 8f3a 2ad6 1dbd
00000150: 19d5 75bc 9aff febb 5914 df3c 2198 e93b
00000160: 2925 833d b6c0 01bc f2ae a4bc a666 053c
00000170: c81e 14bc d203 a93b ef35 5d3d 76ea 173d
00000180: b749 28bd f4f7 143d 072f 5fbd e2d2 773d
00000190: f206 48bd 8e60 693d c91e 75bd 791c 1fbd
000001a0: 53b1 46bd 3168 343d 7e2d 46bd 15df 07bd
000001b0: f13c 7dbd 393b a4bd 0d04 83bd 28c5 c9bc
000001c0: 226f eabb 8c48 5f3d a6b2 73bd 6223 a2bd
000001d0: 910a b0bd dc8b 8bba d5cd 46bc 6357 873d
0.050179154 0.053181898 -0.028680163 0.009449422 -0.07040845 0.024326544 -0.07777242 -0.03937511
-0.07748695 -0.015872847 -0.0042885207 -0.067006476 0.050233584 0.0045165396 -0.027060065 -0.07998349
0.02737754 -0.07169588 -0.0019215631 0.025563743 -0.038122304 0.08166525 0.028975043 0.06203654
-0.05178733 -0.04752711 0.022427611 0.029313078 -0.054663967 0.06479104 -0.04798316 0.010795135
-0.079916105 -0.04992654 0.026898563 -0.04895993 0.03447549 0.010174559 -0.021570507 0.084323235
-0.04447282 0.044635884 0.014013837 0.032597348 -0.021731095 0.025839735 -0.010805055 0.035223816
-0.008959838 -0.02550399 0.02947899 0.014702471 0.05056216 0.012611839 0.045475952 0.05644603
-0.034024846 0.0052778525 0.07007009 -0.07991597 0.034186695 -0.074453205 0.029378869 -0.03823708
0.04926952 0.014860965 -0.042138692 0.017325459 0.054212317 0.038728405 0.06668402 -0.06953016
0.019112159 0.0077330633 -0.058688257 0.06500623 -0.018961528 -0.06950891 0.05586824 -0.023825353
-0.029258266 0.021204209 0.0010970891 -0.03853432 -0.01500442 -0.007781935 0.027231382 0.007128731
0.06403572 -0.007919481 -0.020102952 0.008142149 -0.009040542 0.005157926 0.054006513 0.037088834
-0.041085925 0.03636928 -0.05448821 0.060503848 -0.04883475 0.056976847 -0.059843812 -0.038845513
-0.048508953 0.044044677 -0.04838323 -0.033171732 -0.061825696 -0.08019108 -0.06397257 -0.024630144
-0.0071543613 0.054512545 -0.059496544 -0.07916905 -0.085957654 -0.001064654 -0.012134035 0.066084646
