spring21/lab/regression_N1000_rm1.pt (torch, 182373 bytes, 5 tensors)

conv.0.weight f4 [16, 7, 5]
00000000: 6918 0bbe 849e 1a3e 56e1 d23d 317c 33bd
00000010: e59d 283d 90d4 debd 18e2 01bd 01c2 303d
00000020: b43b fc3d c345 b33d aeb3 31bd c24f 0e3e
00000030: 54ef 25be b8b1 983c 25bf 853d 1eff 063e
00000040: c613 0ebd f0a6 c33c 5b18 9d3c 472e 3b3d
00000050: 9622 9e3d 8ad0 213b b1a2 943d 410a 4bbd
00000060: 05a1 cb3d ec6d dabd aebc a8bc 0cc0 033c
00000070: 2807 b7bc 119f 773d bc27 d2bd 1248 0a3d
00000080: 57ca 9dbd 7abd c23d f0bc 97bd 18a0 a9bd
00000090: 3a01 c53d 805e bb3d 4f1c b43d 75c3 15be
000000a0: e6b5 8f3c 052c 1fbe 245a 05be 55d2 063e
000000b0: 60b2 d3bd 0ec4 f1bd be7b d7bd cc4d e7bd
000000c0: a838 00bc d139 0bbe 5ca9 c93c 0fcd d73d
000000d0: d632 f4bb 67bb fb3d 8bf7 1abc 1d98 16be
000000e0: b306 eb3d a92a 25be 4d25 943d 0988 2bbe
000000f0: d240 903d 89e9 abbd c90e 82bd e352 bb3d
00000100: 1c4a 1b3e 29eb 08be 0ac2 11be c5d6 ce3d
00000110: da3c ccbd 2a6c 1a3d 1c72 e13d 9f6c 0fbd
00000120: d7b1 16be 2e13 9d3d 34e5 6cbb ac3a 143c
00000130: 8a69 5f3d befa f13d 06dc 083d e843 9cbd
00000140: 60b6 613b ccaf f23d eced cc3d ae8f ad3d
00000150: 74d9 f73b 4b65 b7bc ad96 703d 5217 abbd
00000160: 31ae fe3d f768 a6bd ce26 4ebd 9286 0c3e
00000170: 1715 ca3c 8eea a83d 4e7d 06be 9a51 57be
00000180: 2da9 0dbe 45c6 273d 2216 1a3d 2eed edbd
00000190: b3a5 f6bc cb8a f0bc 8ce4 ba3d 98cc abbd
000001a0: aa9a 0e3d bc92 283d 7556 bebc 9c55 f3bd
000001b0: f1b8 183c 720e d9bd bcb5 03be a8ad 2e3d
000001c0: 7e2d a8bb 67f9 47bc 02fb 0dbc 08fe 27be
000001d0: e9dd e63d 5002 24be 6f23 0ebe 4227 ccbd
000001e0: 8f62 9fbb a8ac 1dbe 2bba 25bd 1a15 413d
000001f0: ce99 eabd 56b3 b93d ecf8 083d 8192 a03c
00000200: 2195 babd 2310 f1bd 9ff8 3b3d e243 0b3e
00000210: 22b4 5c3d be42 633d 5f2d 17be 674e 06be
00000220: 6522 0bbe 6e01 a3bb b3ef d33d 1283 023e
00000230: 5413 eebd 28d4 2bbd 1c7f 8ebc e52b 643d
00000240: c73d 3e3d b212 25bd 91fd a93d 35d0 55bd
00000250: c863 b03d b278 ccbc 05af a4bd 7678 c13d
00000260: 1e71 cdbd 6068 0dbe 49ee adbd 5f6b dabd
00000270: 18c0 1a3e 4b14 8d3b 259d a5bd 7363 f43d
00000280: 668d 07be 133e 28bb bd01 1fbe 5b1a 1c3d
00000290: dda8 fcbc 5e5c b3bd bb4b a6bd 03e5 72bc
000002a0: 9e00 86bd 9747 973d 009b e63c 0818 bbbd
000002b0: 83ce 593d 9d14 f0bc 0daa 8c3d caaa f4bd
000002c0: d010 a6bd 9c8f e13d cd61 7c3d 0e66 0dbe
000002d0: 0e42 4c3c 2682 dd3d 5ae1 29bc d2a3 0dbe
000002e0: e778 4cbd dbcc 0f3e 7731 88bd a876 8cbd
000002f0: 7739 45bc d61e cd3d e7f9 34be c00c 323d
00000300: 3d42 e5bd 5243 9c3d 8946 533d f9aa 9c3d
00000310: 05d0 2fbd 01a9 853d ffe4 2abe bf3f b33d
00000320: 5ff7 5ebd 380a d8bd 3b36 153e 74ae 3c3d
00000330: a8c9 d93b ab0d f9bd e046 4d3c 8570 05bd
00000340: 8cfe bd3d d8e1 2a3d c2be e4bc 636f a33c
00000350: 3864 df3d 9ca6 4fbd 83ff 12be 1a0c e13d
00000360: f432 143e 226c cebd 900c 22bd 7870 fb3d
00000370: 8ada 11be 9d77 f5bd 9981 06be 919a 76bc
00000380: efc4 eb3d c183 1cbe 8acf 2abe 4ce3 c03d
00000390: 7774 1ebe ded8 263a 338d 183e dc91 f83d
000003a0: 669b cb3c a05e 9fbd 9e89 8a3d 3019 563c
000003b0: 0a6a 10be 0e78 f53d da2d d8bd 852a 2cbe
000003c0: 69e9 b6bd 9c8f f43d 3ead 143e 69f8 bc3d
000003d0: a62d 433d 833a febd 17c9 32be 0ef0 203d
000003e0: 3468 26bc dacd b93b cf31 aa3d b25a 003c
000003f0: f3dc a9bb 79e8 34bd b2b7 3ebd fee4 ce3d
-0.1358353 0.15099531 0.10296886 -0.04381961 0.041166205 -0.10880387 -0.03170976 0.043153767
0.12316075 0.0875354 -0.043384247 0.13897613 -0.16204578 0.01863943 0.065305986 0.13183257
-0.034686826 0.023883313 0.019176653 0.04569843 0.077214405 0.002469095 0.072575934 -0.049570326
0.099428214 -0.10665497 -0.020597782 0.008041393 -0.02234228 0.060454432 -0.10261485 0.033760138
-0.07704609 0.09508796 -0.07409084 -0.082824886 0.096193746 0.09148884 0.08794462 -0.14625342
0.01754279 -0.15544136 -0.13022667 0.13166173 -0.10336757 -0.118049726 -0.10521649 -0.112941355
-0.007826008 -0.13596274 0.02461689 0.10537159 -0.007452349 0.122916035 -0.009458433 -0.14706464
0.11475887 -0.16129555 0.07233677 -0.16751112 0.070436135 -0.08394153 -0.06350476 0.09146669
0.15164989 -0.13370956 -0.14234176 0.10099558 -0.09972544 0.03770081 0.11008093 -0.0350157
-0.14716278 0.07669674 -0.0036147358 0.009047192 0.05454401 0.118154034 0.033412956 -0.076301396
0.003444098 0.11849937 0.100063175 0.0847467 0.007563764 -0.022387167 0.058737446 -0.08354057
0.12435568 -0.08125489 -0.050329976 0.1372321 0.02466826 0.08247863 -0.13133737 -0.21027222
-0.13834067 0.04096057 0.037618764 -0.11617504 -0.030108308 -0.029363057 0.09125623 -0.083886325
0.034815468 0.04115556 -0.023234585 -0.11881563 0.009321437 -0.10598458 -0.12862295 0.04264608
-0.005132376 -0.012205458 -0.008665802 -0.16405499 0.11272795 -0.16016507 -0.13880704 -0.09968425
-0.004864044 -0.15397894 -0.040460747 0.047139265 -0.11455117 0.09067409 0.033440515 0.019601109
-0.09110475 -0.11770656 0.0458914 0.13600114 0.053882726 0.055483572 -0.14763401 -0.13115846
-0.13587339 -0.0049745357 0.103484534 0.12745312 -0.1162478 -0.041950375 -0.017394595 0.055705924
0.046445634 -0.040301032 0.08300317 -0.052200515 0.08612782 -0.024959896 -0.08041195 0.09446804
-0.10031341 -0.13809347 -0.08492715 -0.10665011 0.1511234 0.0043053976 -0.080866136 0.11933031
-0.13237533 -0.0025671765 -0.15528007 0.038111072 -0.030842239 -0.08757852 -0.08119913 -0.014825108
-0.065430865 0.073867016 0.028150082 -0.09135443 0.05317546 -0.029306704 0.06868372 -0.11946638
-0.081086755 0.110137194 0.061616708 -0.13808462 0.012466921 0.108158395 -0.010368669 -0.13832024
-0.04991999 0.1404299 -0.0665006 -0.068585694 -0.0120376265 0.10015647 -0.17673455 0.04346919
-0.111942746 0.07630028 0.05158094 0.07649798 -0.042922992 0.065263756 -0.16688918 0.08752393
-0.05443513 -0.10548824 0.14571469 0.04606481 0.0066463538 -0.1216081 0.012529105 -0.03257801
0.092770666 0.041719288 -0.027922992 0.019950574 0.10907787 -0.050696 -0.14355282 0.10988636
0.14472562 -0.100792184 -0.03956276 0.12277311 -0.14243522 -0.11985705 -0.13135375 -0.0150515
0.115121715 -0.15284635 -0.16680732 0.094183534 -0.15474115 0.0006364713 0.14897613 0.121371955
0.024854373 -0.0778172 0.0676453 0.013067529 -0.1410295 0.11985789 -0.105556205 -0.16813095
-0.08931238 0.11941454 0.14519212 0.09227068 0.047650956 -0.12413504 -0.17459522 0.039291434
-0.01015668 0.0056702914 0.083102815 0.007834123 -0.00518381 -0.044167016 -0.046561904 0.101022705

conv.0.bias f4 [16]
00000000: 9001 2abe d770 b43d 3a09 2dbd 908e b83d
00000010: c38c 2ebd 083d 26be 5a8a c03c 71ed e13d
00000020: b256 3ebd e0bf a63d 7e7c a43d 4736 adbd
00000030: 6245 e33d a2e6 843d 1d4b 9c3d 0789 0fbd
-0.16602159 0.08810585 -0.042245127 0.09011567 -0.04261471 -0.16234219 0.023503471 0.110316165
-0.046469398 0.08142066 0.080315575 -0.08457618 0.11097218 0.06489302 0.07631514 -0.03504279

liner.0.weight f4 [120, 368]
00000000: f551 c6bc aeaf 8abd c937 853b 51d2 cbbc
00000010: 2426 4c3c 962b 30bd efba 27bc e2f4 21bd
00000020: 1858 a73c 263b f33b 7ad1 d3bc c868 53bd
00000030: 4ee4 33bd a570 373d 0ea8 103b a5f8 43bc
00000040: c039 e03c 2476 81bc fa39 7b3c a1c6 a63b
00000050: 8e77 0abc e501 36bd b8c1 273d f0d5 a53c
00000060: 7ec5 1a3d 3d91 b73c 6972 95bc a378 913b
00000070: 05f8 b3bc f68f acbc e8ae 173d d0e7 bf3c
00000080: 26e0 3f3d b4bb c0b9 9696 aebc 736a 2b3d
00000090: 32ae 0dbd 0fcf 7d3c 1b10 343d 863a 783a
000000a0: 26d7 04bd 24b7 103d f64f f2ba 80ce 0dbd
000000b0: ee98 00bc d5fe 863c 5d8c c4bc b766 913c
000000c0: c688 14bd 4517 373d e2f9 37bd 9754 1e3c
000000d0: fb3a 903c 2e9d 42bd 3505 5b3a fa84 ec3c
000000e0: a234 5cbc be84 0ebd 7589 aa3c 735c 03bd
000000f0: fd4d 293d d49b 39bd 0278 91bc 4ae9 1a3d
00000100: 8a32 183d 4ce1 3fbd b643 43bd f8aa 9abc
00000110: 3f11 1b3d 316a 233d 5e31 05bd 026a 13bd
00000120: 8674 0abc 0de1 d8bc d98a c43b 0e35 4cbd
00000130: 6fca 2d3c 2bda 483d 5d88 053d f091 e53b
00000140: 2e3c 173d e787 223d 638f 363d 846d c13c
00000150: 2b72 be3b f653 993c f573 febc 7b2d e03c
00000160: 02dc 2cbc b0fa e13c 5a1c 043d 504a dbbc
00000170: 8269 5cbd b0c9 ca3c 1f2c 303c 4001 a63c
00000180: 53c4 96bc 4d1d 81bc 8e9f ccbc 6c63 40bd
00000190: 5e9f 0abd 4867 f2bc d1f9 fdbc f88f 8fbc
000001a0: 20c0 64bc 504c 53bc ee44 2b3d 91f6 123d
000001b0: 4e0b 2e3d a0b5 fb39 81e6 933c 3885 38bc
000001c0: bbd4 c73c 1721 80bb cca0 05bd 47e3 ff3c
000001d0: 8240 213d fe56 c63c 4c98 28bd 0148 43bd
000001e0: a6e1 91bc 26ae 8a3c ebe9 92bb e4ad 803c
000001f0: 131a 3f3d 095e 3f3d a758 04bd 5453 123c
00000200: cafc a639 5e8c 34bd d33b 503d a3d6 223d
00000210: 77fb 15bd bd23 c7bb 6a7a 17bd 5aaa 08bd
00000220: 58d2 2d3d 3c1d 053d aa57 803c 2e32 3e3a
00000230: 6ad1 32bd 118c b03c 814d c53b 4456 47bd
00000240: 03d3 1f3c 1473 1ebd d805 503d f9b6 813c
00000250: 04f1 2e3d c823 1e3d e1d5 053d 7708 273d
00000260: 8217 3139 7dd1 c7bc 501d 353d 6838 99bc
00000270: 39c1 52bd b4b8 ecbc 200f 163d d22c da3c
00000280: 094d 323c a575 5bbc 7c27 42bb 3b74 053d
00000290: 83e1 3dbd c928 e4bc 1df6 1f3d 092c e23c
000002a0: b09a 1c3d a671 e43c 46ec a9bc 1b91 23bc
000002b0: ebcb 7d3c 7b94 3bbd a471 9ebc 1811 e43c
000002c0: e5bb ec3b 9fb7 093c 58c2 2cbc f9b2 3f3d
000002d0: 297b a63b bf4a d83c cdf4 4b3d c894 07bd
000002e0: 887c d43b 2607 b53c 5e9b 2f3d 0f62 2c3c
000002f0: 86c0 3e3c 5028 4fbd 3fe1 43bd 20c6 8dbc
00000300: 5cf4 a3bc 455b 873c b7dd 97bb 4bed 52bd
00000310: 4058 da3c 6aee 24bd e8bb ecbc c5c6 413d
00000320: 5d81 0e3d 8a91 2ebd 8fb8 e23c aa84 0abd
00000330: c8fa c73c e76d b7bc 0a57 173d e37b afbc
00000340: 3be3 dabc 9bf0 883b b2a5 393c 55d6 1f3c
00000350: 90bc 383d 1559 cfb9 7ad2 cdbc 26f7 8cbc
00000360: 67c1 373a 1c6e 343d 509e 14bc d254 313c
00000370: e105 2bbd 5178 a03b ab55 a9bb f976 6b3c
00000380: 142c 39bd b29b 12bc 27bb a2bc 76cc f03c
00000390: 2a39 a0bc e392 83bb a89f 8b3b 3f7b 3e3d
000003a0: 90b7 3d3d 5277 a73c 8114 ffbc 4e83 8ebc
000003b0: 47f3 1cbd 5621 d3bc 822c c93b f678 d9b9
000003c0: 6f17 b6bc 7556 bfbc 8a3e 2cbc 0c8a 2e3d
000003d0: e926 8bbc 27bc 513d 5d28 0bbd fa2e 3b3d
000003e0: 2e96 e6bc b22c ae3b fd71 173d ec96 533c
000003f0: a2d4 bbbc 3808 8cbb 0d56 223d 7ec3 1c3b
-0.024209002 -0.067717895 0.004065488 -0.02488056 0.012460265 -0.043010317 -0.01023744 -0.03954018
0.020427749 0.0074228225 -0.025856722 -0.0516136 -0.0439189 0.04478516 0.0022072825 -0.011961137
0.027371287 -0.015803404 0.015333647 0.0050895964 -0.008451356 -0.0444354 0.04095623 0.020243615
0.037786 0.022408122 -0.018243032 0.00443943 -0.02196885 -0.02106474 0.037032038 0.023425967
0.046844624 -0.00036760943 -0.02131204 0.041849565 -0.034589954 0.015491261 0.043960672 0.000946917
-0.032431744 0.035330907 -0.0018486965 -0.034620762 -0.007848961 0.016478935 -0.023992712 0.017749174
-0.03626325 0.044699926 -0.04491604 0.0096637225 0.01760625 -0.04751318 0.0008354963 0.028872002
-0.013440283 -0.03479456 0.020817498 -0.03207059 0.04133414 -0.045314625 -0.01775742 0.037820138
0.037157573 -0.04684572 -0.047671996 -0.018880352 0.037858244 0.039896194 -0.032517783 -0.03598977
-0.008450633 -0.0264745 0.0059979972 -0.049855284 0.010607346 0.049036186 0.03260075 0.0070059225
0.036922626 0.039680388 0.044570338 0.023611791 0.0058119497 0.018716794 -0.031061152 0.027365437
-0.010550501 0.027585357 0.0322536 -0.026768833 -0.053811558 0.024754375 0.010752707 0.020264268
-0.018404162 -0.015761042 -0.024978425 -0.046969816 -0.03384339 -0.029590264 -0.03100291 -0.017524704
-0.013961822 -0.012896612 0.041813783 0.035879675 0.04249125 0.00048009772 0.018054249 -0.011262231
0.02439343 -0.0039101946 -0.03262405 0.031236304 0.03936816 0.024211403 -0.041160867 -0.04767609
-0.017807793 0.016928744 -0.0044834516 0.015707918 0.046655726 0.04672054 -0.032311108 0.008931
0.0003185033 -0.044079177 0.050838303 0.039755475 -0.03661677 -0.0060772584 -0.036981978 -0.033365585
0.042436928 0.032498583 0.015666801 0.0007255402 -0.043656744 0.021551164 0.006021202 -0.048666254
0.009754899 -0.038683966 0.050786823 0.015834318 0.04271032 0.038608342 0.032674674 0.040779557
0.00016888793 -0.024391884 0.044217408 -0.018703654 -0.051453803 -0.028896667 0.036635518 0.0266327
0.010882624 -0.013394748 -0.0029625585 0.03258155 -0.046357643 -0.02785148 0.03905307 0.027608888
0.03823346 0.027886223 -0.020742547 -0.009983326 0.015490512 -0.0457959 -0.019341297 0.027840182
0.007224547 0.008405595 -0.010544382 0.04680154 0.0050806 0.02640283 0.049794007 -0.033100873
0.006484572 0.022098135 0.04287278 0.010521426 0.011642581 -0.050575554 -0.047822233 -0.017306387
-0.02001398 0.016523013 -0.0046345848 -0.05149583 0.026653409 -0.040266432 -0.028898194 0.047308702
0.03479134 -0.042619266 0.027675895 -0.033817925 0.024411574 -0.022391273 0.03694824 -0.021421378
-0.02671968 0.004179073 0.011331009 0.009755691 0.045101702 -0.00039548488 -0.025124777 -0.017207693
0.0007009715 0.04405032 -0.009070948 0.010823445 -0.041753653 0.0048971553 -0.005167683 0.014371627
-0.04520805 -0.0089482535 -0.019864632 0.02939437 -0.019558508 -0.004015313 0.004260976 0.046504255
0.046317637 0.020442639 -0.031137707 -0.017396595 -0.038317945 -0.025772732 0.006139339 -0.00041479588
-0.02222797 -0.023356656 -0.010512957 0.04261212 -0.016986327 0.051204827 -0.03397404 0.045699097
-0.028147783 0.0053153867 0.036973942 0.012914401 -0.02292854 -0.0042734407 0.039632846 0.0023920233

liner.0.bias f4 [120]
00000000: f385 24bd 47b0 ba3c 006b 52bc 0988 28bc
00000010: 8972 91bc 1223 3fbc 1b0e c73c 7625 1f3d
00000020: 944c 3a3d 6b64 4e3d 5e7d 21bc 0a33 51bd
00000030: f15c 3cbd f5c4 33bd 9f96 1cbd 61de cabb
00000040: e4de 12bc 1da1 4dbd 48cc 423c c0e6 08bd
00000050: 915c 763c 154e c7bb 6f92 8bbc 408f 173d
00000060: 6a37 453d d76c 92bc 3c2f 5f3c 209f 37bd
00000070: 928c 1cbd 596f 4bbd eb50 733b 4efe 64bc
00000080: ec1a 98bb 158b c9bc 7692 233d 1521 f4bc
00000090: 1d42 363d 1a91 da3a 028a 1f3d c713 133d
000000a0: 44dd 8f3b 9b06 dabc 8950 1dbd 1977 453c
000000b0: 14c8 4b3d 07a6 18bb 1619 093d 610c 60bc
000000c0: 4a29 36bb be0c 1f3d fc8f c33c 61b9 85bc
000000d0: cde5 cb3c 0a33 e4bc f2b2 473d f173 983b
000000e0: ff0b 263d 4ecb d13b 3aa0 29bd 0c5a 3c3d
000000f0: 4fb8 eabc 698a b03c 6609 23bd 36ea 4a3d
00000100: 898f d9bb 8397 103d 8ac1 17bd b6ef 823c
00000110: 7b59 1cbd 36fd 49bd bacf 143d b006 4bbd
00000120: 4f78 103d c517 08bb 3d4b 143d 626b 513d
00000130: 182c ccbb ca0d 3f3d 4a95 273d f17e ed3c
00000140: d25e 03bd 43f0 54bd ceb6 d6bc 76fa 23bc
00000150: 9931 3c3d 94b6 18bd a33c 093c 3421 f93c
00000160: 6c8e 85bb 09d0 f6bc 1145 fcba f6a7 453d
00000170: 6705 b53c f39b 5fbc 512c 4d3c bfb5 123d
00000180: a2fe eebc 7339 273d 0734 2bbd 5357 4c3d
00000190: 9fa7 82bc d308 8f3c 28b1 04bd 47fa 443d
000001a0: acd0 8b3c 4902 003d 40f3 b2bc 88f1 223c
000001b0: 8513 10bd 08e7 853c 7843 66bb f165 723c
000001c0: d757 173d aa40 6abb e9f7 80bb fbac 24bd
000001d0: ead1 2c3d cdfc 3ebd 4809 78bc 4345 ecbc
-0.040166806 0.022789134 -0.012842894 -0.01028634 -0.01775481 -0.011666076 0.024298718 0.038854085
0.045483187 0.050388735 -0.00985655 -0.051074065 -0.045987073 -0.043889005 -0.03822958 -0.0061910604
-0.008964274 -0.050202478 0.011889525 -0.033423185 0.015036718 -0.006082306 -0.017037598 0.03700185
0.04814855 -0.017874165 0.013622101 -0.044829488 -0.038219996 -0.049666736 0.0037127088 -0.013976647
-0.004641881 -0.024602452 0.039934598 -0.029800931 0.044496644 0.0016675324 0.038949974 0.035907533
0.0043903906 -0.026614478 -0.038406882 0.012052321 0.049751356 -0.002329232 0.03347119 -0.013674826
-0.0027795606 0.03883051 0.023872368 -0.016323747 0.024889851 -0.027856369 0.04875464 0.004652493
0.040538784 0.0064024096 -0.04141257 0.045984313 -0.028652338 0.021550374 -0.039803885 0.049539767
-0.006639425 0.035300743 -0.037049808 0.015983444 -0.038171273 -0.049313746 0.036330916 -0.049566925
0.035270985 -0.002076612 0.036204565 0.0511278 -0.0062308423 0.04664401 0.040913858 0.028991194
-0.03207285 -0.051986944 -0.026210215 -0.010008445 0.045945738 -0.037283495 0.008376273 0.03041134
-0.004075816 -0.030128496 -0.0019246658 0.048255883 0.022097303 -0.013648021 0.012522773 0.035817858
-0.029174153 0.040826272 -0.041797664 0.049887966 -0.015949069 0.017460262 -0.032395512 0.048090246
0.017067276 0.03125218 -0.021844506 0.009945281 -0.035174865 0.016345516 -0.003513543 0.014794813
0.036949005 -0.003574411 -0.003935803 -0.04020403 0.042192377 -0.04662781 -0.015138932 -0.02884162

liner.2.weight f4 [1, 120]
00000000: e128 913c edce 8b3c 4fbe 763d 3e44 90bc
00000010: 52c6 afbb 2a74 fb3b e240 a6bc 5baa f9bc
00000020: 22b4 383d 5f97 0e3d a5e1 f2bb 268d 753c
00000030: c509 af3c 7d66 f03c e538 75bd ceb7 353c
00000040: 4380 a13b 08af 0c3d 8fc5 1dbc ce9f 69bd
00000050: 5c93 b4bd 94a3 7d3a a508 a33a c12c a0bc
00000060: 3ffc 5b3b 5d4e 88bc 44c5 3b3d 163c dabb
00000070: d537 803c b2ce 93bc 7471 93bc a9c9 27bc
00000080: 4f53 533c 9215 213d 30c0 4abd 85cc 253d
00000090: cff2 36bd 1994 b0bc 8ff3 58bc eb65 023d
000000a0: b70d 1b3c 1f1b 57bc 8d44 2bbc 3fb8 6d3d
000000b0: 7c4c 1fbd 4433 85bc a35e e1bc 8e79 6cba
000000c0: 8141 553c 9360 af3c 7647 753c db98 0c3a
000000d0: 9435 c23c b68a 323d 710a 943c ab3b 613c
000000e0: da06 c73c ba47 40bd 9efd 66bc 0b66 c1bc
000000f0: 507d 973c 297c 66bc 284a 173b b18e fd3b
00000100: 0e72 813c 516c 1f3d 4aa5 7dbc 289f be3b
00000110: 6366 81bc c6e8 22bc 01be 8d3c eda4 70bd
00000120: 8485 ed3b 8339 59bc 90b5 5abd 45e6 ed3c
00000130: f437 ce3c 0050 1bbd e8f8 27bd 7981 98bc
00000140: 0af9 d33b 9d92 74bc 7510 e03c 6699 a7bc
00000150: 945e a1bc 58a6 cdbb b903 0e3c a680 0a3d
00000160: 0834 f93b bbdc 09bd 39e4 e63b e639 b4bc
00000170: 3fde db3c 3956 79bd 183f 80bc eae3 753c
00000180: 741c 73bc 4e5a 823d 0baa 61bd a9a9 acbc
00000190: 6551 81bc 8128 cbba 7fa8 b2bc f63a d2bc
000001a0: 0c8f 893c eec0 06bd d624 383d 08e8 803d
000001b0: f33d cf3c c1ee 77bc b004 cabc dd6e 1a3c
000001c0: c2b3 783c 80e6 893d ce84 7a3d 54f8 0f3d
000001d0: ae3b 26bc 8c08 86bb 0098 52bd edc3 43bc
0.017719688 0.017066443 0.060240086 -0.017610665 -0.005364218 0.00767376 -0.02029461 -0.03047674
0.045093663 0.034812327 -0.007412153 0.014987266 0.021366963 0.029345745 -0.059868712 0.011091186
0.00492862 0.03434661 -0.009629621 -0.057037167 -0.08817169 0.0009675559 0.0012438489 -0.01955259
0.0033567098 -0.016638929 0.045842424 -0.006659995 0.015651623 -0.018042896 -0.017998435 -0.010240951
0.01289828 0.03932721 -0.04949969 0.04047825 -0.044665154 -0.021554993 -0.013241663 0.031835478
0.009463719 -0.013129025 -0.0104533555 0.05803704 -0.0388913 -0.016259797 -0.027510947 -0.00090207986
0.013016106 0.021408355 0.014970651 0.00053633534 0.023707189 0.043589316 0.018071385 0.013747136
0.02429526 -0.046943404 -0.014098553 -0.023608228 0.01849237 -0.014067688 0.0023084972 0.0077379574
0.015801456 0.038921658 -0.0154813025 0.0058173127 -0.015795892 -0.009943193 0.017302515 -0.058751035
0.0072485823 -0.013258341 -0.053395808 0.029040465 0.025173165 -0.03791809 -0.04100886 -0.018616425
0.0064688968 -0.014927533 0.027351597 -0.020458888 -0.019698419 -0.0062759332 0.00866788 0.033814095
0.0076050796 -0.03365777 0.007046249 -0.022000264 0.026839374 -0.060873244 -0.015655085 0.015007952
-0.014838327 0.063648805 -0.055093806 -0.021076994 -0.015785882 -0.0015499742 -0.02180886 -0.02566288
0.016791843 -0.032898836 0.044957004 0.062942564 0.025298094 -0.015132607 -0.024660438 0.009425846
0.015179576 0.067334175 0.06116181 0.035148934 -0.010146065 -0.0040903743 -0.05141449 -0.011948568
