spring21/lab/regression_N1000_rm1.5.pt (torch, 182373 bytes, 5 tensors)

conv.0.weight f4 [16, 7, 5]
-0.08360111 0.025838546 0.091840796 0.11643508 0.026645653 0.056535527 -0.15137324 0.07594693
-0.16932672 -0.09048463 -0.10888231 0.0034605728 -0.057205398 0.06483528 -0.05923187 -0.14026915
0.04267583 0.14477009 -0.020904459 0.07023699 0.068454236 0.034723543 0.016162222 0.15048453
-0.05197886 -0.029165724 0.14033489 -0.029951893 -0.018705113 0.0026387654 -0.06803618 0.011558801
-0.15298496 -0.059235808 0.033925634 -0.009400358 -0.024442218 -0.07410107 -0.047329266 0.055187814
-0.14512089 -0.15198798 0.14918739 0.13016301 0.05135806 -0.052650057 0.13694546 0.06045311
-0.03821365 -0.13016675 0.09284559 0.11875946 0.14086479 -0.15993321 0.059973523 0.11013102
0.1470689 0.15147282 -0.040770654 0.09656304 0.078490324 0.048112087 -0.049283504 -0.080117516
-0.03062436 -0.16466247 -0.15214948 -0.101258926 -0.061488725 -0.14908914 -0.03653414 0.094314426
0.0017069853 -0.0618885 0.07908816 0.1778894 -0.12580001 0.11219242 -0.047766026 -0.06743774
-0.1612762 0.11312372 6.14198e-05 0.019071978 0.05637262 -0.061818965 -0.12054364 -0.020676758
0.10067188 -0.13664888 0.03274883 -0.13989869 -0.15524155 -0.15879056 0.14713131 -0.15850505
0.02230134 -0.022140678 -0.072185285 -0.060348663 0.03900221 -0.07069191 0.021824911 -0.03708669
0.06508331 0.12037362 0.01913659 0.112904824 0.080622785 -0.11616348 -0.013962134 0.041200228
-0.047867164 0.10908013 0.09064279 -0.093482114 0.006159139 -0.098974176 -0.019975044 -0.100696266
0.13951175 -0.1561623 0.020627026 -0.1457322 -0.12156391 0.11024035 -0.12571055 -0.10615644
-0.14727396 -0.04956575 -0.07150171 -0.115942165 0.039889958 0.03237838 -0.069601744 0.028836966
-0.04313164 0.13025533 -0.07495097 0.09596079 -0.078658 -0.035186667 -0.032291155 -0.015244044
-0.1603948 0.07954382 -0.16397926 -0.13276723 -0.02672782 0.017051531 0.06734878 -0.09564924
-0.03330977 0.149919 0.090022616 -0.06366973 0.11914912 0.13273853 -0.159348 0.13450362
0.06769987 0.14785837 0.077580795 -0.032408703 0.06972961 0.08375701 0.015275369 -0.10556043
-0.05506575 -0.0935992 -0.011230154 -0.11410848 -0.11841311 -0.14985693 -0.06999683 -0.07123708
-0.073430546 0.11637367 0.031027589 0.019032162 -0.020772615 0.031496823 0.0728707 0.019308578
-0.04064127 0.08326137 -0.08317727 -0.07260587 0.07624793 0.017063627 0.047126323 -0.068797596
-0.10379368 0.11523494 0.010262765 0.064283386 -0.035446644 -0.16521224 -0.051574595 -0.08606163
0.14439167 -0.06299007 0.14258645 0.042329103 0.093885735 -0.11814194 -0.019951621 -0.011999105
-0.01944969 0.050548464 0.064398 -0.18761806 0.08001586 -0.06503897 -0.07866531 0.0805355
0.0039505525 0.041251842 -0.011714329 0.07004966 0.13365163 -0.14121364 0.09978944 0.1267492
0.09389421 0.07104162 0.040381316 0.019987749 0.11529472 -0.043776132 0.13865106 -0.10635142
0.017413719 0.001944081 -0.0103206625 -0.055426538 -0.16199169 -0.08531324 -0.12237809 0.023308964
-0.11807903 -0.040649835 -0.09277947 0.12243102 -0.07430636 -0.13843353 -0.15449524 -0.021932706
-0.060671184 0.08819129 -0.08337611 0.08204723 -0.11493505 -0.02220141 -0.06456173 -0.01021916
00000000: 0f37 abbd 5cab d33c 0717 bc3d 8475 ee3d
00000010: fc47 da3c cc91 673d 9601 1bbe 108a 9b3d
00000020: fc63 2dbe 0150 b9bd b0fd debd c7ca 623b
00000030: 3550 6abd 5cc8 843d 1e9d 72bd b7a2 0fbe
00000040: dacc 2e3d 9c3e 143e d43f abbc 69d8 8f3d
00000050: bc31 8c3d 463a 0e3d a366 843c 9e18 1a3e
00000060: c9e7 54bd f5ec eebc f3b3 0f3e ac5d f5bc
00000070: 773b 99bc 23ef 2c3b 8e56 8bbd 2061 3d3c
00000080: 17a8 1cbe 3fa1 72bd 9bf5 0a3d f603 1abc
00000090: 0c3b c8bc 4dc2 97bd 55dc 41bd 9e0c 623d
000000a0: 929a 14be bda2 1bbe 94c4 183e 7449 053e
000000b0: d45c 523d 96a7 57bd 6e3b 0c3e ae9d 773d
000000c0: eb85 1cbd 6f4a 05be d425 be3d 2938 f33d
000000d0: dc3e 103e 88c5 23be cca6 753d 5f8c e13d
000000e0: 3b99 163e b11b 1b3e 21ff 26bd d8c2 c53d
000000f0: 89bf a03d 2e11 453d 80dd 49bd a714 a4bd
00000100: f0df fabc 479d 28be 13cd 1bbe d760 cfbd
00000110: 9adb 7bbd d3aa 18be d3a4 15bd ec27 c13d
00000120: ecbc df3a cc7e 7dbd f9f8 a13d a428 363e
00000130: b8d1 00be 24c5 e53d 4fa6 43bd cc1c 8abd
00000140: 9725 25be 69ad e73d 81ce 8038 d63c 9c3c
00000150: fae6 663d e235 7dbd 95df f6bd 4e62 a9bc
00000160: 0f2d ce3d afed 0bbe a323 063d 9a41 0fbe
00000170: a4f7 1ebe fe99 22be 97a9 163e 264f 22be
00000180: 4db1 b63c 5e60 b5bc e1d5 93bd 2930 77bd
00000190: c8c0 1f3d ecc6 90bd 28ca b23c 37e8 17bd
000001a0: 664a 853d 7286 f63d 57c4 9c3c a53a e73d
000001b0: 8f1d a53d 1ee7 edbd 6fc1 64bc 92c1 283d
000001c0: 5c10 44bd 6765 df3d eda2 b93d 8d73 bfbd
000001d0: 9ad2 c93b f9b2 cabd b4a2 a3bc d839 cebd
000001e0: 2bdc 0e3e 03e9 1fbe 02fa a83c d23a 15be
000001f0: 80f6 f8bd b1c5 e13d 44ba 00be 8c68 d9bd
00000200: fcce 16be 7505 4bbd 7d6f 92bd 1673 edbd
00000210: a763 233d 319f 043d 5c8b 8ebd 803b ec3c
00000220: cdaa 30bd a761 053e e57f 99bd 1787 c43d
00000230: 7217 a1bd e51f 10bd bb43 04bd 28c2 79bc
00000240: 893e 24be dfe7 a23d 2eea 27be 22f4 07be
00000250: 4df4 dabc a7af 8b3c 28ee 893d c0e3 c3bd
00000260: d36f 08bd 5e84 193e c75d b83d 4765 82bd
00000270: 7404 f43d 9cec 073e 1f2c 23be 51bb 093e
00000280: 3ba6 8a3d 2f68 173e aee2 9e3d fdbe 04bd
00000290: 66ce 8e3d cc88 ab3d 8b45 7a3c 1130 d8bd
000002a0: a08c 61bd f0b0 bfbd aefe 37bc b5b1 e9bd
000002b0: 9382 f2bd 1874 19be 7f5a 8fbd bfe4 91bd
000002c0: c162 96bd 5255 ee3d 922d fe3c 56e9 9b3c
000002d0: 552b aabc d002 013d 3c3d 953d 062d 9e3c
000002e0: 7677 26bd f084 aa3d d858 aabd 63b2 94bd
000002f0: e027 9c3d 05c9 8b3c 8807 413d c1e5 8cbd
00000300: c891 d4bd 4c00 ec3d 2825 283c 02a7 833d
00000310: 8030 11bd 662d 29be e23f 53bd 1441 b0bd
00000320: 69db 133e f000 81bd 2f02 123e 4861 2d3d
00000330: 2a47 c03d 67f4 f1bd 9571 a3bc e597 44bc
00000340: f554 9fbc e80b 4f3d 19e3 833d f31e 40be
00000350: 5bdf a33d 2733 85bd 471b a1bd ccef a43d
00000360: a373 813b b1f7 283d 75ed 3fbc 3276 8f3d
00000370: f9db 083e 4f9a 10be 685e cc3d 8bca 013e
00000380: 9c4b c03d 457e 913d e166 253d 59bd a33c
00000390: a31f ec3d 9a4e 33bd 8bfa 0d3e c6ce d9bd
000003a0: 37a7 8e3c 89d0 fe3a ff17 29bc f006 63bd
000003b0: 26e1 25be b5b8 aebd 5da1 fabd 71f2 be3c
000003c0: 6bd3 f1bd 7180 26bd 2a03 bebd 1dbd fa3d
000003d0: ef2d 98bd 85c1 0dbe 0034 1ebe 38ac b3bc
000003e0: 5982 78bd a39d b43d 18c1 aabd 6108 a83d
000003f0: 1163 ebbd bbdf b5bc f138 84bd 436e 27bc

conv.0.bias f4 [16]
0.0026938445 0.03767009 -0.16449551 0.04918152 0.055857893 -0.1034374 0.037978724 -0.029415838
-0.09127975 -0.06332469 0.043023445 0.14357363 -0.012522007 0.13421652 0.1469512 -0.16533425
00000000: 368b 303b f44b 1a3d 8371 28be 9072 493d
00000010: 3fcb 643d fdd6 d3bd 948f 1b3d 7cf9 f0bc
00000020: e1f0 babd 60b0 81bd 5a39 303d f704 133e
00000030: 1b29 4dbc 0e70 093e 607a 163e 624d 29be

liner.0.weight f4 [120, 368]
0.002140583 0.046050068 0.016955374 0.010319996 0.027041275 0.036483493 -0.033959422 0.045229554
0.0050177393 0.03419391 -0.03838872 0.018260207 0.051450495 0.043478865 -0.030913154 -0.0126989735
0.0012658621 -0.045663226 0.009572025 -0.00060805853 0.04368369 0.034376886 0.04439368 -0.017908493
-0.018204711 0.0069857277 0.026504265 0.02245085 -0.03305538 -0.037268665 -0.038527478 0.009001016
0.035381615 0.0021676659 -0.035699885 0.032989748 -0.00014723337 -0.01742403 0.044836745 -0.03154307
-0.014506456 0.03848845 0.021899937 0.0013159917 0.007893038 -0.0016805965 -0.04225302 -0.032046456
0.017371997 -0.009533034 -0.04938084 0.040096268 0.019474013 0.045063324 -0.04513183 0.0064930143
0.019212749 0.043622125 -0.020322196 -0.024776474 -0.050790463 -0.021466378 -0.043900773 -0.025831247
-0.04372984 0.023867227 0.0030541886 -0.0059748013 0.012394506 0.014202508 0.04111689 0.0372247
0.025876453 0.02790917 0.033628795 0.018943133 -0.0047254283 -0.009386729 -0.028768158 -0.020653728
-0.024180297 0.0055956226 -0.0078654215 0.027607085 0.03949512 0.045050703 0.024130026 0.024842864
0.01614664 0.022835102 -0.049306065 0.02687137 0.008784879 -0.028672006 -0.043439675 -0.0107974885
-0.050266404 0.051768903 -0.00057014753 -0.025423413 -0.03616763 -0.011624355 0.0011303439 0.032890193
-0.030227868 -0.028358648 0.049858693 0.049609415 -0.03899772 0.022285871 0.048982576 -0.04230281
-0.034991954 0.047267683 0.050288703 0.0070490134 0.023601225 0.023634698 0.041254744 0.04240247
0.014433295 -0.013533504 -0.0061947615 0.03289746 0.016554331 0.024967823 -0.03644733 0.01578065
-0.015212212 0.036101364 -0.046291795 -0.046949215 0.014536222 0.010231304 0.0062872977 -0.007134233
-0.027003067 -0.011904379 -0.020857807 0.034339584 -0.031144176 -0.025143757 0.04283638 -0.004520116
-0.052870408 0.040142983 -0.04687682 0.036006495 0.007908777 -0.04084749 0.0019102553 0.020746902
-0.040643483 0.03147026 0.0035401843 -0.023625819 -0.03508234 0.03629425 -0.028606534 -0.038059726
-0.0014859005 0.013395601 -0.011920435 -0.022352098 0.033424057 -0.042902637 0.02837054 -0.023583915
0.048083954 0.006561638 -0.012374009 -0.010029573 -0.046316415 -0.034297545 -0.024548642 0.03836721
-0.04884997 0.036892265 0.038785137 -0.040725805 0.020134425 0.0452936 -0.0024899733 0.045977097
0.01684204 0.04054193 -0.0027825898 -0.030459687 -0.040935088 -0.040898055 -0.021478128 0.014628321
0.007881816 0.04581957 -0.0050058695 -0.0037986306 -0.006459654 -0.04790141 -0.048514582 0.016653836
-0.0064951573 0.007910341 -0.0341342 -0.04611373 0.023798522 0.034411147 0.017589925 0.006939967
-0.0006383578 0.03561789 -0.0064664795 -0.034038667 -0.010734386 0.009565943 0.011742343 -0.02978952
-0.0039514117 0.034940425 0.007950072 0.014706566 -0.014777777 0.0080869645 0.050674867 0.0031019587
-0.040358372 -0.018596996 0.0015622178 -0.04875247 -0.021426959 -0.048785403 0.0040711407 0.036611255
-0.0018039477 -0.026838062 0.03330075 0.011146125 0.038308937 -0.040149044 0.02667276 0.031198792
0.025702402 0.04769745 0.01434048 -0.022326738 0.04471477 0.03599638 -0.03639705 -0.049398217
-0.0116883535 -0.016357025 0.038510717 0.0027857048 0.0141456835 -0.0029773016 0.0020334518 0.026961958
00000000: 0649 0c3b ff9e 3c3d ffe5 8a3c 3315 293c
00000010: aa85 dd3c b76f 153d 0919 0bbd a042 393d
00000020: d96b a43b ea0e 0c3d 7e3d 1dbd 6e96 953c
00000030: c1bd 523d e516 323d 953d fdbc 5b0f 50bc
00000040: 49eb a53a 5d09 3bbd fcd3 1c3c 1e66 1fba
00000050: abed 323d c7ce 0c3d 26d6 353d d5b4 92bc
00000060: 0c22 95bc 88e8 e43b 791f d93c d8ea b73c
00000070: 1465 07bd 07a7 18bd fdce 1dbd ff78 133c
00000080: 50ec 103d 660f 0e3b 0b3a 12bd 4220 073d
00000090: a862 1ab9 d7bc 8ebc bca6 373d 4e33 01bd
000000a0: 7dac 6dbc 11a6 1d3d 7f67 b33c 5b7d ac3a
000000b0: cd51 013c 7647 dcba 8111 2dbd 2543 03bd
000000c0: b84f 8e3c 7130 1cbc 9043 4abd fc3b 243d
000000d0: f787 9f3c 5294 383d 27dc 38bd 5ac3 d43b
000000e0: 0e64 9d3c 1dad 323d bc7a a6bc 08f8 cabc
000000f0: a909 50bd 42da afbc 4cd1 33bd 0d9c d3bc
00000100: 101e 33bd 3485 c33c c828 483b 44c8 c3bb
00000110: 5312 4b3c a3b1 683c 2f6a 283d ed78 183d
00000120: dbfa d33c c6a1 e43c 59be 093d a12e 9b3c
00000130: c4d7 9abb ccca 19bc 33ab ebbc 0232 a9bc
00000140: c215 c6bc 7c5b b73b f8dd 00bc 4128 e23c
00000150: a3c5 213d 1687 383d 55ac c53c 4383 cb3c
00000160: f545 843c ae10 bb3c 28f5 49bd 5921 dc3c
00000170: 74ee 0f3c 8ee1 eabc cded 31bd f3e7 30bc
00000180: 25e4 4dbd a10b 543d f475 15ba c344 d0bc
00000190: 8224 14bd 1474 3ebc 0c28 943a deb7 063d
000001a0: 6fa0 f7bc 6550 e8bc a138 4c3d 3e33 4b3d
000001b0: 13bc 1fbd dc90 b63c f4a1 483d b645 2dbd
000001c0: b953 0fbd c29b 413d 87fb 4d3d 69fb e63b
000001d0: 5b57 c13c 8e9d c13c bcfa 283d 36ae 2d3d
000001e0: a079 6c3c a1bb 5dbc 6dfd cabb 7dbf 063d
000001f0: f39c 873c 5289 cc3c cc49 15bd 6c46 813c
00000200: a43c 79bc 06df 133d 779c 3dbd d24d 40bd
00000210: 5629 6e3c 33a1 273c ad05 ce3b 49c6 e9bb
00000220: 8935 ddbc 960a 43bc fedd aabc aaa7 0c3d
00000230: 1222 ffbc 48fa cdbc 3375 2f3d 7b1d 94bb
00000240: a48e 58bd f86c 243d e901 40bd 8c7b 133d
00000250: d193 013c b34f 27bd 8861 fa3a 68f5 a93c
00000260: c879 26bd f6e6 003d 7002 683b ef8a c1bc
00000270: 80b2 0fbd 48a9 143d 4058 eabc 84e4 1bbd
00000280: 8cc2 c2ba 3979 5b3c ee4d 43bc bf1b b7bc
00000290: aae7 083d adba 2fbd 5669 e83c 0e33 c1bc
000002a0: aef3 443d 0203 d73b 5bbc 4abc 1453 24bc
000002b0: 48b6 3dbd 957b 0cbd 3c1a c9bc f026 1d3d
000002c0: e816 48bd 581c 173d 2add 1e3d 1ad0 26bd
000002d0: f3f0 a43c c885 393d d22e 23bb 7b52 3c3d
000002e0: 51f8 893c 4b0f 263d 1c5c 36bb 9886 f9bc
000002f0: 8dab 27bd b884 27bd e6f2 afbc a0ab 6f3c
00000300: bb22 013c 4dad 3b3d 4708 a4bb 72f2 78bb
00000310: 81ab d3bb 4534 44bd 3ab7 46bd a06d 883c
00000320: 54d5 d4bb 609a 013c 4ed0 0bbd c0e1 3cbd
00000330: 1ef5 c23c b4f2 0c3d bf18 903c aa68 e33b
00000340: 7757 27ba 11e4 113d c3e4 d3bb 216c 0bbd
00000350: 47df 2fbc 79ba 1c3c f562 403c 2709 f4bc
00000360: d87a 81bb b11d 0f3d 0541 023c cff3 703c
00000370: 7d1e 72bc 307f 043c 7390 4f3d 3b4a 4b3b
00000380: d24e 25bd ba58 98bc 55c3 cc3a acb0 47bd
00000390: 9787 afbc 34d3 47bd 3467 853b aff5 153d
000003a0: 7172 ecba 7fdb dbbc 5e66 083d 3d9e 363c
000003b0: d5e9 1c3d 5373 24bd d580 da3c 9c94 ff3c
000003c0: d88d d23c 675e 433d 55f4 6a3c 90e6 b6bc
000003d0: d626 373d f170 133d 1315 15bd c955 4abd
000003e0: 8280 3fbc 2bff 85bc 6abd 1d3d 5f90 363b
000003f0: 4cc3 673c d51e 43bb a943 053b 53df dc3c

liner.0.bias f4 [120]
0.00078161457 -0.018177962 -0.022345534 -0.012646624 -0.021292761 -0.031088036 0.019236181 0.008326732
-0.03631448 -0.020082386 -0.0178203 -0.03467275 -0.0010411206 0.03125974 -0.03212431 -0.024628347
0.0008006892 0.0070265844 -0.043410026 -0.00746341 0.008475127 -0.030164216 -0.043705784 -0.015547458
0.01780872 0.003924358 0.023862408 0.029326817 -0.01785805 0.0015151714 -0.01114855 -0.019469399
0.050607838 -0.027841356 0.019711083 0.0018318555 0.0472369 0.010221122 -0.042716026 -0.04133264
-0.005267968 0.034937363 0.016810372 0.03218642 0.03729985 0.029395675 -0.022213902 0.05169073
0.048294954 -0.0048174732 0.02006832 -0.03937016 0.013353536 0.047828123 -0.027466536 -0.011559659
-0.017381355 -0.04984231 -0.013616061 0.048870478 -0.041109405 0.009172072 -0.033133287 -0.016932553
-0.014897549 -0.03868092 0.047280796 -0.023765294 0.020093903 0.028143488 0.030558396 0.032893497
0.051387604 -0.029648963 -0.013186681 -0.021101503 0.032911316 0.002484955 0.030899841 -0.050768312
-0.04732428 -0.0068655466 -0.0022753633 0.022760121 -0.034648344 -0.010840268 0.029125227 -0.03491594
0.008804448 0.035895694 -0.0002044913 -0.031130964 0.0027626166 0.012977891 0.016559582 -0.007573199
0.03443012 0.049826067 -0.014591388 -0.036396097 -0.021425901 -0.048562232 -0.0017017875 0.049247164
0.017198445 0.0029612288 0.01770458 0.01682594 -0.048291214 0.021443848 -0.009129584 0.0062956074
-0.002322387 -0.032768574 0.024390986 0.028274475 0.022029242 -0.0048152925 0.0369516 -0.00940768
00000000: 44e5 4c3a f3e9 94bc fb0d b7bc c933 4fbc
00000010: 286e aebc 56ac febc 3295 9d3c d86c 083c
00000020: 7ebe 14bd d183 a4bc e1fb 91bc 0305 0ebd
00000030: 3676 88ba 370a 003d c894 03bd 63c1 c9bc
00000040: 58e5 513a 433f e63b b6ce 31bd 9f8f f4bb
00000050: 42db 0a3c f21a f7bc d604 33bd c4ba 7ebc
00000060: 98e3 913c e797 803b 197b c33c cb3e f03c
00000070: 0c4b 92bc b798 c63a 68a8 36bc 4a7e 9fbc
00000080: 2a4a 4f3d 8e13 e4bc 2379 a13c df1a f03a
00000090: 7b7b 413d 7e76 273c 00f7 2ebd 6a4c 29bd
000000a0: eb9e acbb 7b1a 0f3d e8b5 893c e8d5 033d
000000b0: bac7 183d 33cf f03c eef9 b5bc a9b9 533d
000000c0: eed0 453d e5db 9dbb 5166 a43c 9b42 21bd
000000d0: cac8 5a3c 6ce7 433d 8001 e1bc b964 3dbc
000000e0: 5863 8ebc 7327 4cbd e615 5fbc 692c 483d
000000f0: 5662 28bd 7546 163c c5b6 07bd 23b6 8abc
00000100: d914 74bc e26f 1ebd 82a9 413d 6faf c2bc
00000110: f89b a43c 2c8d e63c 9a55 fa3c 55bb 063d
00000120: cf7b 523d 62e2 f2bc f30c 58bc 0fdd acbc
00000130: 04ce 063d a0da 223b aa21 fd3c 6ff2 4fbd
00000140: 1bd7 41bd 61f8 e0bb 431e 15bb 6f73 ba3c
00000150: 6ceb 0dbd 619b 31bc 0798 ee3c 0404 0fbd
00000160: 8840 103c 5d07 133d b76c 56b9 5d06 ffbc
00000170: 040d 353b 38a1 543c f6a7 873c 9928 f8bb
00000180: 9906 0d3d 6b16 4c3d b810 6fbc 1314 15bd
00000190: 5f85 afbc 31e9 46bd 830e dfba 65b7 493d
000001a0: c1e3 8c3c 2d11 423b 3209 913c 8ed6 893c
000001b0: 02cd 45bd 02ab af3c 4094 15bc 624b ce3b
000001c0: 3033 18bb 5738 06bd 9bcf c73c df9f e73c
000001d0: ab76 b43c 9ac9 9dbb 905a 173d ab22 1abc

liner.2.weight f4 [1, 120]
-0.010243808 -0.07993745 0.008003986 0.021301934 -0.014402354 -0.058914963 0.02165271 -0.001121473
-0.022618726 0.006142599 0.0015556961 0.038612887 0.0028766247 -0.010577175 -0.027772851 0.015817719
-0.027388709 0.02020877 0.06808037 0.032603066 0.065341115 0.0137940515 0.020625925 0.031081384
-0.0016694644 -0.009910916 -0.0076086037 -0.0033583168 0.008564609 -0.014378806 -0.006689514 0.03804024
-0.08623177 0.0056719435 0.023060286 -0.035175264 0.02974158 0.0046204263 -0.00076542876 0.017768564
-0.019415865 -0.014732696 -0.045865126 0.023070212 0.017891219 -0.033732377 -0.01942707 0.04202235
-0.012506546 0.04540676 -0.019468581 0.012107121 -0.011455493 0.0034957207 -0.01890198 -0.017939227
0.02618354 0.04755818 -0.027699133 0.022313768 -0.00041626886 0.02921502 -0.02643354 -0.049898624
-0.074977756 0.010954771 0.022409795 -0.0061708847 -0.078992516 -0.021906706 -0.024708657 0.08808591
0.04518717 0.068370424 -0.018778767 -0.012550235 0.017981417 -0.01464728 -0.05208064 -0.025165793
-0.023263834 -0.011094092 -0.03140724 -0.08635012 0.046918955 -0.054511424 0.031234723 0.014198694
0.006961908 0.026482865 -0.002866762 -0.040498864 -0.018453857 0.016145354 -0.013042884 0.011147278
0.019298246 -0.009353683 -0.053528436 0.014445399 0.08324975 -0.009904352 -0.07500349 -0.023544999
-0.04802544 -0.038932737 -0.03300665 -0.007848489 0.019953433 -0.010522385 -0.03952004 0.018105814
-0.018565077 0.06310229 -0.008723133 0.012953458 -0.0297118 0.01672136 0.005296802 0.016278785
00000000: a5d5 27bc 3fb6 a3bd 2723 033c 6581 ae3c
00000010: daf7 6bbc d150 71bd 0661 b13c 64fe 92ba
00000020: e84a b9bc db47 c93b 80e8 cb3a 8c28 1e3d
00000030: c185 3c3b e34b 2dbc e483 e3bc 2994 813c
00000040: 495e e0bc dd8c a53c b96d 8b3d cb8a 053d
00000050: 90d1 853d 7200 623c b3f7 a83c 639e fe3c
00000060: eed1 daba 6561 22bc 9851 f9bb 3517 5cbb
00000070: 9352 0c3c 1595 6bbc b633 dbbb 15d0 1b3d
00000080: 489a b0bd b6db b93b ede8 bc3c f013 10bd
00000090: 9da4 f33c f266 973b 0ea7 48ba 618f 913c
000000a0: 050e 9fbc 6861 71bc 12dd 3bbd befd bc3c
000000b0: 9b90 923c f62a 0abd 8525 9fbc a11f 2c3d
000000c0: 42e8 4cbc 70fc 393d 937c 9fbc f25c 463c
000000d0: d2af 3bbc 7618 653b 53d8 9abc 49f5 92bc
000000e0: dd7e d63c 5ecc 423d 4be9 e2bc 5dcb b63c
000000f0: a93e dab9 5654 ef3c 278b d8bc 8062 4cbd
00000100: f08d 99bd a47b 333c bf94 b73c 2235 cabb
00000110: d4c6 a1bd b175 b3bc cf69 cabc 6366 b43d
00000120: 2f16 393d cb05 8c3d eed5 99bc 809f 4dbc
00000130: c44d 933c 25fb 6fbc 8252 55bd 7e28 cebc
00000140: cc93 bebc ffc3 35bc e1a4 00bd 55d8 b0bd
00000150: 172e 403d 5f47 5fbd f6df ff3c a4a1 683c
00000160: b820 e43b 98f2 d83c 49e0 3bbb 23e2 25bd
00000170: 8b2c 97bc 4343 843c d2b1 55bc 13a3 363c
00000180: 5b17 9e3c 3140 19bc a240 5bbd 65ac 6c3c
00000190: d87e aa3d dd45 22bc 6e9b 99bd 71e1 c0bc
000001a0: 53b6 44bd ef77 1fbd fb31 07bd f396 00bc
000001b0: 6275 a33c 1566 2cbc c4df 21bd a552 943c
000001c0: ca15 98bc c63b 813d 79eb 0ebc be3a 543c
000001d0: 2966 f3bc 3cfb 883c cc90 ad3b 165b 853c
